smplx_visualization/data/100831_smplx_params_all.npz (npz, 25014 bytes, 8 tensors)

global_orient f4 [61, 3]
0	0xbfa98302	-1.3243105
1	0x3f9ffb49	1.2498561
2	0xbf9bd0b8	-1.2173071
3	0xbfae5c07	-1.3621835
4	0x3faa35c2	1.3297656
5	0xbf9e98ef	-1.2390422
6	0xbf9bd677	-1.2174824
7	0x3fa03a3b	1.251777
8	0xbfa6c333	-1.302832
9	0xbfa483f8	-1.2852774
10	0x3fa146e9	1.2599765
11	0xbfa3df26	-1.2802474
12	0xbfa608fc	-1.2971492
13	0x3f98bf46	1.1933372
14	0xbfa0e812	-1.2570822
15	0xbfa2d45e	-1.2721059
16	0x3f9da970	1.2317333
17	0xbfa42538	-1.2823858
18	0xbfb6e892	-1.4289725
19	0x3fa06987	1.2532204
20	0xbf962646	-1.173043
21	0xbfb1ab59	-1.3880416
22	0x3fa8c3d6	1.3184764
23	0xbf9b0606	-1.2111213
24	0xbf9fb256	-1.2476299
25	0x3fa56569	1.2921573
26	0xbfa7ae3e	-1.310005
27	0xbfb01ff1	-1.3759748
28	0x3fa5662c	1.2921805
29	0xbf9a7197	-1.2065915
30	0xbfa6511d	-1.2993504
31	0x3fa535ba	1.2907021
32	0xbf9faac8	-1.2473993
33	0xbfbe94ad	-1.4889122
34	0x3f42bf50	0.7607317
35	0xbf62f9e4	-0.8866255
36	0xbfbb63af	-1.4639796
37	0x3f4f680c	0.8101814
38	0xbf75dac4	-0.96036935
39	0xbfb8b279	-1.4429466
40	0x3f9520f1	1.1650678
41	0xbf8dd863	-1.1081661
42	0xbfa9c062	-1.3261836
43	0x3f989fad	1.1923729
44	0xbf9f950a	-1.2467358
45	0xbfd4a188	-1.6611795
46	0x3f662069	0.89893204
47	0xbf699c36	-0.91253984
48	0xbfb272d9	-1.3941299
49	0x3f87fed2	1.062464
50	0xbf9cde90	-1.2255421
51	0xbfabb4b6	-1.3414524
52	0x3fa16162	1.2607844
53	0xbf9ef6cf	-1.241907
54	0xbfa40c9d	-1.2816349
55	0x3f9f1e34	1.2431092
56	0xbfa40c40	-1.2816238
57	0xbfc3b79e	-1.529041
58	0x3fc38a9f	1.5276679
59	0xbf8a721e	-1.0816076
60	0xbfb31cdb	-1.3993181
61	0x3fa582b5	1.2930514
62	0xbf94a2ec	-1.161222
63	0xbfbcaaa2	-1.4739573
64	0x3fb867da	1.4406693
65	0xbf8c5436	-1.0963199
66	0xbfa7ead9	-1.3118545
67	0x3fa23056	1.2671001
68	0xbf9d54f7	-1.2291554
69	0xbfbef25d	-1.4917713
70	0x3fb91e47	1.4462365
71	0xbf91e331	-1.1397458
72	0xbfa428c2	-1.2824938
73	0x3f9e9074	1.2387834
74	0xbfa350ad	-1.2758995
75	0xbfbc57da	-1.471431
76	0x3faa429a	1.3301575
77	0xbf9b7139	-1.2143928
78	0xbfa8994f	-1.3171786
79	0x3fa2c6d2	1.2716925
80	0xbf9f7150	-1.2456455
81	0xbfadc1f5	-1.3574816
82	0x3fa6fa5c	1.3045154
83	0xbf995e61	-1.1981927
84	0xbfc23fe3	-1.5175747
85	0x3fbc1098	1.4692564
86	0xbf869e3b	-1.0517038
87	0xbfba31ea	-1.4546483
88	0x3fad5813	1.3542503
89	0xbf980e4e	-1.1879365
90	0xbfa50c4d	-1.2894379
91	0x3fa75125	1.3071638
92	0xbfa43bdc	-1.2830768
93	0xbf9b9108	-1.2153635
94	0x3fa9b227	1.3257493
95	0xbfb01b29	-1.3758289
96	0xbfb40a90	-1.4065723
97	0x3fa93db7	1.3221959
98	0xbf9e3c25	-1.2362105
99	0xbfbcbc7a	-1.4745018
100	0x3fa1f751	1.26536
101	0xbf8fc41c	-1.1231723
102	0xbfac7b89	-1.34752
103	0x3fa335b8	1.2750769
104	0xbf9caa57	-1.2239484
105	0xbfa3c845	-1.2795492
106	0x3fa0af48	1.2553492
107	0xbf99fc3b	-1.20301
108	0xbf9b2d61	-1.2123224
109	0x3fa855f4	1.3151231
110	0xbface2da	-1.350673
111	0xbfa60fa4	-1.2973523
112	0x3f8eb054	1.1147561
113	0xbf9ec05a	-1.2402451
114	0xbfa736ab	-1.3063558
115	0x3f9a6c30	1.2064266
116	0xbf9d3fdf	-1.2285117
117	0xbf93f6cc	-1.1559691
118	0x3f9d5619	1.22919
119	0xbfa69ccd	-1.3016602
120	0xbf8941e6	-1.0723236
121	0x3f87564f	1.0573214
122	0xbfc3b285	-1.5288855
123	0xbf99c405	-1.2012945
124	0x3fa85819	1.3151885
125	0xbfa656cd	-1.299524
126	0xbfad793e	-1.3552625
127	0x3f997563	1.1988949
128	0xbf97a323	-1.184666
129	0xbf93adab	-1.1537374
130	0x3f9d4e55	1.228953
131	0xbfb4d6ac	-1.4128013
132	0xbf8a80f0	-1.0820599
133	0x3f8abf8c	1.0839705
134	0xbfc11986	-1.5085914
135	0xbf95d300	-1.1705017
136	0x3fa4f016	1.2885768
137	0xbfa2c763	-1.2717098
138	0xbfaa8d18	-1.3324308
139	0x3f9c7279	1.2222434
140	0xbf9a8415	-1.2071558
141	0xbf905f2a	-1.1279042
142	0x3f92180f	1.1413592
143	0xbfb0acc6	-1.3802726
144	0xbf86cc2d	-1.053106
145	0x3f8a3c3b	1.0799631
146	0xbfc7161b	-1.5553621
147	0xbf99e01f	-1.2021521
148	0x3fa390cc	1.2778563
149	0xbfaae12b	-1.3349966
150	0xbfb44aea	-1.4085362
151	0x3f904898	1.1272154
152	0xbf9ce256	-1.2256572
153	0xbfc9f29e	-1.5777166
154	0x3f8f0c1b	1.1175569
155	0xbf75b69c	-0.95981765
156	0xbfba63ee	-1.4561746
157	0x3f962232	1.1729186
158	0xbf90f39c	-1.1324344
159	0xbfac2290	-1.3448048
160	0x3f988aa4	1.191731
161	0xbf9f5347	-1.2447289
162	0xbfc37e22	-1.5272868
163	0x3fa53db5	1.2909456
164	0xbf80aebb	-1.0053324
165	0xbfc9929f	-1.574787
166	0x3f934421	1.1505166
167	0xbf805e58	-1.0028791
168	0xbfaa3c67	-1.3299683
169	0x3f9e1bd9	1.2352248
170	0xbf97df40	-1.1865005
171	0xbfc516cb	-1.5397581
172	0x3f9687e4	1.176022
173	0xbf87d442	-1.0611651
174	0xbfc659ac	-1.5496116
175	0x3f9a3b45	1.2049338
176	0xbf76a807	-0.9635014
177	0xbfbc0f53	-1.4692177
178	0x3f922383	1.1417087
179	0xbf89f20e	-1.0776994
180	0xbfadcd35	-1.3578249
181	0x3fa0b1c9	1.2554256
182	0xbf9aecaf	-1.210348

transl f4 [61, 3]
0	0xbdd50aa8	-0.10402423
1	0x3ead9474	0.33902323
2	0xbf4be4f4	-0.7964623
3	0xbddd34d4	-0.10801092
4	0x3eaec89b	0.34137425
5	0xbf4c7234	-0.7986176
6	0xbdc77ba6	-0.09740381
7	0x3eabfb9e	0.33590406
8	0xbf514ead	-0.81760675
9	0xbdd3e0f7	-0.10345643
10	0x3ea78400	0.32717896
11	0xbf4be753	-0.7964985
12	0xbdbdac9d	-0.09261439
13	0x3ea42b91	0.3206449
14	0xbf4e4760	-0.8057766
15	0xbdc88c68	-0.09792405
16	0x3eab6282	0.33473593
17	0xbf51164d	-0.81674653
18	0xbddfee82	-0.10934164
19	0x3eab9014	0.3350836
20	0xbf4da05c	-0.80322814
21	0xbdd38ad1	-0.103292115
22	0x3eaa5197	0.33265373
23	0xbf4db4b0	-0.8035383
24	0xbdcbe96c	-0.09956631
25	0x3eae573c	0.3405093
26	0xbf512167	-0.8169159
27	0xbdef6fdc	-0.11691257
28	0x3eb11c16	0.3459174
29	0xbf4ef536	-0.8084291
30	0xbdd3a86c	-0.10334858
31	0x3eafabad	0.34310666
32	0xbf4c5177	-0.79811805
33	0xbe4578ca	-0.19284359
34	0x3e9fd442	0.31216627
35	0xbf4e2fdd	-0.80541784
36	0xbe8a7004	-0.27038586
37	0x3eb7fa29	0.35933045
38	0xbf4c56e5	-0.7982009
39	0xbe13f1b6	-0.14447674
40	0x3e9c709f	0.30554673
41	0xbf4c5f2e	-0.7983273
42	0xbdeef968	-0.11668664
43	0x3e9cdb92	0.3063627
44	0xbf4cede4	-0.8005049
45	0xbe9549a6	-0.29157752
46	0x3eb5706f	0.35437343
47	0xbf4c0ff3	-0.79711837
48	0xbe5e6092	-0.21716526
49	0x3eaad17f	0.33362958
50	0xbf4c1bc1	-0.7972985
51	0xbdcae753	-0.09907403
52	0x3e9e7fea	0.30956966
53	0xbf4c9f04	-0.7993014
54	0xbded68ef	-0.1159228
55	0x3ea03226	0.3128826
56	0xbf4c16d8	-0.79722357
57	0xbd81846f	-0.06324088
58	0x3eb0263b	0.34404168
59	0xbf4cd315	-0.80009586
60	0xbdd8bc1d	-0.10582755
61	0x3eb9f9ed	0.3632349
62	0xbf4eeb7e	-0.8082808
63	0xbdb05533	-0.086100005
64	0x3ea29d88	0.31760812
65	0xbf4e104c	-0.8049362
66	0xbdda0482	-0.10645391
67	0x3eb2655d	0.3484296
68	0xbf4be794	-0.79650235
69	0xbd7d939e	-0.061908357
70	0x3ea7e490	0.32791567
71	0xbf4d0847	-0.80090755
72	0xbdf15d0a	-0.11785324
73	0x3ea21de1	0.3166342
74	0xbf4e396e	-0.8055638
75	0xbd8bb616	-0.068218395
76	0x3eaa113a	0.33216268
77	0xbf4d0455	-0.80084735
78	0xbdd6b773	-0.10484209
79	0x3ea5909a	0.32336885
80	0xbf4c3a6c	-0.79776645
81	0xbdc13543	-0.09433987
82	0x3ea85d56	0.3288371
83	0xbf4cf7fa	-0.8006588
84	0xbd875379	-0.06607718
85	0x3e9cc0ab	0.30615744
86	0xbf4d2a0e	-0.80142295
87	0xbddac4d2	-0.10682072
88	0x3eb27a3f	0.3485889
89	0xbf4e6503	-0.8062288
90	0xbda01ac1	-0.07817603
91	0x3ea6bb32	0.32564694
92	0xbf4ba6b1	-0.79551226
93	0xbd862e30	-0.06551778
94	0x3eb7de95	0.35912004
95	0xbf59a22d	-0.85013086
96	0xbd802284	-0.06256583
97	0x3ec1824e	0.37794727
98	0xbf4e5889	-0.80603844
99	0xbd9b04d2	-0.07569279
100	0x3ec5cda1	0.38633445
101	0xbf3d17ad	-0.7386425
102	0xbd4ed11c	-0.05049239
103	0x3eccb619	0.3998268
104	0xbf4e93b1	-0.8069411
105	0xbd1ebec7	-0.03875616
106	0x3ec4343c	0.38321102
107	0xbf4c34d1	-0.7976809
108	0xbc896b1e	-0.01677471
109	0x3ecd6f28	0.40123868
110	0xbf5acc53	-0.85468024
111	0xbc6662ac	-0.014061611
112	0x3ecb72d5	0.39736047
113	0xbf4c0e80	-0.79709625
114	0xbcaf4759	-0.021396326
115	0x3ec73204	0.38905346
116	0xbf4bdc26	-0.79632795
117	0xbd451b3a	-0.04812167
118	0x3ec6780a	0.38763458
119	0xbf4b567f	-0.7942886
120	0xbe088107	-0.1333047
121	0x3e7126a8	0.23549902
122	0xbf4306ab	-0.7618205
123	0xbd37fe72	-0.044920392
124	0x3ecc78d5	0.39935938
125	0xbf4cefb5	-0.80053264
126	0xbcfcc0fa	-0.030853737
127	0x3ec9770a	0.39348632
128	0xbf4b2562	-0.79353917
129	0xbdc0d85e	-0.09416269
130	0x3e9d10c4	0.30676854
131	0xbf453106	-0.7702793
132	0xbdf45498	-0.119301975
133	0x3e6355db	0.2220072
134	0xbf43c32a	-0.7646967
135	0xbd09e13d	-0.03366207
136	0x3ec9bf94	0.39403975
137	0xbf4c9180	-0.79909515
138	0xbd0c07e2	-0.034187205
139	0x3ecc0c34	0.3985306
140	0xbf4b932a	-0.7952143
141	0xbd395c43	-0.045254003
142	0x3e8d3aff	0.27584073
143	0xbf46c37d	-0.7764204
144	0xbdf1891c	-0.1179373
145	0x3e4f6449	0.202531
146	0xbf4393b8	-0.76397276
147	0xbd55bc3b	-0.052181464
148	0x3ebc1fa8	0.36742902
149	0xbf48073e	-0.7813605
150	0xbd44d929	-0.048058663
151	0x3ec2a527	0.38016626
152	0xbf4c97b6	-0.7991899
153	0xbd437300	-0.047717094
154	0x3efd4e3c	0.4947375
155	0xbf2fbd66	-0.68648374
156	0xbd0f3d22	-0.03497041
157	0x3ec435d9	0.38322333
158	0xbf4dd3f8	-0.80401564
159	0xbd4df1e3	-0.05027951
160	0x3ec0db39	0.37667254
161	0xbf4cdfc3	-0.80028933
162	0xbc80065d	-0.015628034
163	0x3f0eaf89	0.55736595
164	0xbf342a05	-0.70376617
165	0x3c209299	0.009800577
166	0x3ef76d95	0.48325792
167	0xbf423563	-0.7586271
168	0xbcb4faf7	-0.022092326
169	0x3ec677d0	0.38763285
170	0xbf4b8c8b	-0.79511327
171	0xbce5e233	-0.028061962
172	0x3edd8278	0.43263602
173	0xbf444dcb	-0.766812
174	0x3c30a4e8	0.010781504
175	0x3f124c2b	0.57147473
176	0xbf37a748	-0.71739626
177	0xbcca284b	-0.024677416
178	0x3ec8762b	0.39152655
179	0xbf4c979f	-0.79918855
180	0x3d061a1b	0.03273974
181	0x3eab3439	0.3343828
182	0xbf4d7075	-0.8024972

body_pose f4 [61, 63]
0	0xbb08e6b5	-0.0020889465
1	0xbc9c2ad5	-0.019063393
2	0x3cbde651	0.023181112
3	0xbb15b1e2	-0.0022841622
4	0x3c87f16a	0.016594607
5	0x3e2e9576	0.17049202
6	0x3dd21073	0.10257044
7	0xbc5a4625	-0.013322388
8	0x3ccc2f53	0.02492491
9	0x3d20d042	0.03926111
10	0xbe00089f	-0.12503289
11	0x3d261403	0.04054643
12	0x3d035dd5	0.032071907
13	0x3cbaad3c	0.022787683
14	0xbd11be60	-0.035581946
15	0xbe064bfe	-0.13114926
16	0xbd5b1564	-0.053487197
17	0x3bc40bbb	0.0059828437
18	0xbb0e7215	-0.0021735479
19	0x3c70b74c	0.014692139
20	0x3a414c34	0.0007373721
21	0xb87a2fd5	-5.9649192e-05
22	0x3bf2cdcd	0.0074097873
23	0x3c425706	0.011861568
24	0x3e5652e6	0.2093006
25	0xbc85b601	-0.016322138
26	0x3cd572ef	0.026055781
27	0x3bd79b2f	0.0065797786
28	0xbc0d0aab	-0.0086085005
29	0xbbbf3189	-0.0058347625
30	0xbc290590	-0.010316268
31	0xbb35a2e9	-0.002771551
32	0x3bab90d4	0.0052357707
33	0xbcf1ec51	-0.02953163
34	0x3d543779	0.051810715
35	0xbd4a8cec	-0.0494508
36	0xbcf345e8	-0.02969642
37	0x3d8e2094	0.069398075
38	0x3d687e07	0.056760814
39	0xbd98f3b6	-0.07468359
40	0xbb47dd42	-0.003049687
41	0xbd44f9e0	-0.048089862
42	0xbe07c059	-0.13256969
43	0xbc1d3532	-0.009595202
44	0x3d2205c8	0.039556295
45	0x3ce6f4db	0.028192928
46	0xbed3bb80	-0.4135399
47	0xbfa754bf	-1.3072737
48	0x3dc41a09	0.09575278
49	0x3edef72b	0.4354795
50	0x3faa806c	1.3320441
51	0x3d9db7df	0.07701086
52	0xbdd583bd	-0.10425518
53	0xbd4e93fc	-0.050434098
54	0xbd5e6b07	-0.054301288
55	0x3e011b2e	0.12608024
56	0xbc5347cc	-0.012895536
57	0x3c63740a	0.013882646
58	0x3ca53e7e	0.0201714
59	0xbd23cae6	-0.03998842
60	0x3cd90d59	0.026495622
61	0x399c9528	0.0002986577
62	0x3d031cba	0.032009818
63	0x3d06a499	0.032871816
64	0xbd023246	-0.031786226
65	0x3d3782f0	0.044802606
66	0x3d479e07	0.04873469
67	0x3c81fe18	0.015868232
68	0x3e430b40	0.1904726
69	0x3e48ec24	0.1962133
70	0xbb9e6a15	-0.0048344233
71	0x3d3c7d3b	0.046017867
72	0x3db14b94	0.086569935
73	0xbe63d469	-0.22248997
74	0x3d2f4883	0.042793762
75	0x3d902e8b	0.07040127
76	0x3c73842d	0.014863056
77	0xbc394f0e	-0.011310352
78	0xbdec1851	-0.115280755
79	0xbd39fad3	-0.04540522
80	0x3c9a0678	0.018801913
81	0xbce45f64	-0.027877517
82	0x3db09866	0.08622818
83	0xbd8414f5	-0.0644931
84	0xbd82f347	-0.06394058
85	0xbd88df9b	-0.06683274
86	0x3d90b871	0.070664294
87	0x3e56cebd	0.20977302
88	0xbc5bebd8	-0.013422929
89	0x3d24f786	0.04027512
90	0xbdecb8f8	-0.115587175
91	0x3c26ec31	0.010188148
92	0x3dd97b32	0.10619201
93	0xbbebe766	-0.0071992157
94	0x3ce00730	0.027347177
95	0xbd9eea8f	-0.07759582
96	0xbdb1a805	-0.08674625
97	0x3d7ec208	0.06219676
98	0xbd9877e9	-0.07444746
99	0x3bcd8876	0.006272371
100	0x3def342c	0.11679873
101	0x3e436f1c	0.19085354
102	0xbd07b594	-0.03313215
103	0xbdb64756	-0.08900325
104	0xbe30bb12	-0.17258862
105	0xbe25f0ba	-0.16205111
106	0xbd57585a	-0.052574493
107	0x3d023df9	0.031797383
108	0x3e3b7db2	0.18309668
109	0xbe914638	-0.28373885
110	0xbf945cce	-1.1590822
111	0x3eae06f7	0.3398969
112	0x3e456f51	0.19280745
113	0x3f98f218	1.1948881
114	0x3f58dd3e	0.8471259
115	0xbf830a1e	-1.0237463
116	0x3d6014a7	0.054707196
117	0x3f26ebb1	0.65203387
118	0x3f959dbf	1.1688765
119	0xbe55d63e	-0.20882508
120	0xbde4acf0	-0.11165798
121	0xbdb32c3e	-0.08748673
122	0xbdefda9a	-0.11711617
123	0xbe0b40ff	-0.13599013
124	0x3d418ad7	0.04725155
125	0x3e31e5f6	0.1737288
126	0xbdde295d	-0.10847733
127	0xbc44c641	-0.012010158
128	0xbc323b22	-0.010878356
129	0xbde30ca1	-0.11086393
130	0xbc24359f	-0.01002255
131	0x3e200f53	0.15630846
132	0xbc8fac27	-0.017538143
133	0xbc1d9b1a	-0.009619499
134	0x3c6d689e	0.014490275
135	0x3d9a01af	0.07519852
136	0xbe0cffc7	-0.13769446
137	0x3d90f170	0.070773005
138	0x3dc384fc	0.09546849
139	0x3ca22d16	0.01979689
140	0xbd7be895	-0.061501104
141	0xbe26f375	-0.16303809
142	0xbdb20e66	-0.086941525
143	0x3b4fa97e	0.0031686719
144	0xbbfac609	-0.007653002
145	0xbbeac296	-0.0071643097
146	0x3d0629f9	0.032754872
147	0xbc600081	-0.013671995
148	0xbc8149e2	-0.0157823
149	0xbc8faae2	-0.017537538
150	0x3d902771	0.07038773
151	0xbca08ada	-0.01959746
152	0x3cd762ed	0.026292289
153	0xbbff0eee	-0.007783762
154	0x3d2943c6	0.0413244
155	0xbc91fedb	-0.01782172
156	0x3d574fcf	0.052566346
157	0x3d19ac9b	0.037518125
158	0xbb2145f4	-0.0024608346
159	0x3e8cf834	0.27533114
160	0xba99e0a4	-0.0011739922
161	0xbd92a7e3	-0.07160928
162	0xbf01735a	-0.5056664
163	0xbf14829b	-0.5801179
164	0x3ee02c7c	0.4378394
165	0xbedacbde	-0.42733663
166	0x3f0ff54b	0.5623366
167	0xbefe5597	-0.49674675
168	0xbde4d44c	-0.11173305
169	0x3d7c41ef	0.061586317
170	0x3e0a3ea2	0.13500455
171	0xbf017277	-0.50565284
172	0xbf026fbf	-0.5095176
173	0x3ed18e10	0.40928698
174	0xbf1df44e	-0.61700904
175	0x3ef14343	0.4712163
176	0xbe9a64b8	-0.30154967
177	0xbf6881bc	-0.9082296
178	0x3e221921	0.15829898
179	0x3e7f8e5b	0.24956648
180	0xbf78a885	-0.9713214
181	0xbdb1cfa7	-0.08682185
182	0xbeaad49c	-0.33365333
183	0x3dbfcb19	0.0936491
184	0x3da98f33	0.08279266
185	0xbd952d0c	-0.07283983
186	0x3d0566b0	0.032568634
187	0xbd969431	-0.07352484
188	0xb9623ddf	-0.00021576088
189	0xbd5b0e8e	-0.053480677
190	0xbd6561e9	-0.056001578
191	0x3c95ccce	0.018286135
192	0xbd1ddcbf	-0.038540598
193	0x3c7d46bc	0.015458759
194	0x3e19c57e	0.15016744
195	0x3c8b0942	0.016972188
196	0xbbb05ffe	-0.005382537
197	0x3d49ae9b	0.049238782
198	0x3d88114b	0.06643923
199	0xbe0cccf2	-0.13750055
200	0x3d282c90	0.041058123
201	0x3d2cd598	0.042195886
202	0xbb8c9974	-0.004290754
203	0xbc46e9c4	-0.012140695
204	0xbd8e04e5	-0.06934527
205	0xbd2c870d	-0.042120982
206	0x3c0df93a	0.008665377
207	0x3a9a6469	0.0011779192
208	0x3c6b8e02	0.014377119
209	0x3b3035f4	0.0026887627
210	0x3a952beb	0.0011380886
211	0x3bd68719	0.0065468666
212	0x3bcebb39	0.00630894
213	0x3e689acc	0.227153
214	0xbca47bbf	-0.020078538
215	0x3c8a77ef	0.016902892
216	0x3c0f6294	0.00875153
217	0xbb03e810	-0.0020127334
218	0xbc7b40ea	-0.015335301
219	0xbbe9b03c	-0.0071316045
220	0xba8c230b	-0.0010691596
221	0x3c1f5ab6	0.009726217
222	0xbd683f17	-0.056700792
223	0x3c122301	0.008919478
224	0xbd52716b	-0.051377695
225	0xbcdc977e	-0.026927706
226	0x3d5e8ac6	0.054331563
227	0xbc101272	-0.00879346
228	0xbd46bb23	-0.04851831
229	0xbcd9ee17	-0.026602788
230	0xbd27089a	-0.040779687
231	0xbe44781f	-0.19186448
232	0xbb9e213f	-0.0048257406
233	0x3d7823e8	0.060581118
234	0xbd187c57	-0.037227955
235	0xbec680e8	-0.38770223
236	0xbfab0c1b	-1.3363069
237	0x3d8d5f97	0.06902998
238	0x3e9859db	0.29756054
239	0x3fac1a96	1.3445613
240	0xbe4d08dd	-0.20022912
241	0xbdc660a2	-0.096864
242	0x3dc4e557	0.096140556
243	0xbe67bcfd	-0.22630687
244	0x3e6f3566	0.23360214
245	0xbd88a745	-0.06672529
246	0xbc892ba7	-0.016744448
247	0x3cd99b9d	0.02656346
248	0xbb25521c	-0.0025225943
249	0x3c968eb6	0.018378597
250	0x3ba1a919	0.004933488
251	0x3d018e90	0.0316301
252	0xbd32bc5a	-0.043636657
253	0xbba27ef7	-0.004958983
254	0x3ca00ca5	0.01953728
255	0xbdb9d41f	-0.09073662

betas f4 [1, 10]
0	0xc00ac334	-2.1681643
1	0xbf04533d	-0.5168951
2	0x3fa37024	1.2768598
3	0xbfd4f703	-1.6637882
4	0x3ff310d1	1.8989507
5	0xbfa76269	-1.3076907
6	0x3fc0d227	1.5064133
7	0xbddb2e11	-0.10702146
8	0x401c6a1c	2.4439764
9	0xbf2a3f52	-0.6650287

jaw_pose f4 [61, 3]
0	0x3d80b5a9	0.06284649
1	0xba3dc890	-0.0007239664
2	0xb9b1f4ee	-0.00033942558
3	0x3d785187	0.060624626
4	0xbab34435	-0.0013676943
5	0xba66eba0	-0.00088089146
6	0x3d98c514	0.07459465
7	0xba0c43b8	-0.0005350667
8	0xba020b48	-0.00049607875
9	0x3d82aec3	0.063809894
10	0x390109af	0.00012306006
11	0x38633f9b	5.4180255e-05
12	0x3d9cf6ea	0.076642826
13	0xba635fd4	-0.00086736423
14	0xb9ea3857	-0.00044673934
15	0x3da28142	0.0793481
16	0xba70126b	-0.0009158018
17	0xba0ddb0f	-0.00054113654
18	0x3d4ebcf3	0.050473165
19	0x37a0f9ff	1.91899e-05
20	0x39db04a9	0.00041774407
21	0x3d91b3b6	0.07114355
22	0x39f71b16	0.00047131692
23	0x3915e5df	0.00014295381
24	0x3da533ff	0.08066558
25	0xba1aa732	-0.0005899548
26	0xb9cb7879	-0.00038808936
27	0x3d927c84	0.07152656
28	0xba2fd37f	-0.00067072356
29	0xb98bf629	-0.0002669555
30	0x3d512580	0.051061153
31	0xba6c6dcc	-0.00090190466
32	0xb9e7b051	-0.0004419112
33	0x3d6c39cc	0.057672307
34	0xbaec5995	-0.0018032069
35	0xba550b57	-0.0008126995
36	0x3d7a7628	0.06114784
37	0xb95b5f96	-0.00020921076
38	0x38af3e8a	8.356299e-05
39	0x3d733114	0.059372976
40	0xba94eb74	-0.0011361674
41	0xb9f3ca9c	-0.00046499528
42	0x3d655ea5	0.055998463
43	0xba9414f3	-0.0011297747
44	0xb9f55337	-0.0004679204
45	0x3d9e16ef	0.07719218
46	0x37b76300	2.18614e-05
47	0x38b86dce	8.7942564e-05
48	0x3d53d769	0.051719103
49	0xb9294348	-0.0001614216
50	0xb985601b	-0.0002543934
51	0x3d95e76f	0.07319533
52	0x38a25a62	7.741597e-05
53	0xb88e29dd	-6.778885e-05
54	0x3d63c8b5	0.05561133
55	0xba39c05c	-0.0007085854
56	0xb9b114ac	-0.00033775473
57	0x3d2d7b9a	0.042354204
58	0xba6d5a39	-0.0009054277
59	0xba04df47	-0.00050686713
60	0x3d4eb48a	0.050465144
61	0xba6543ca	-0.0008745758
62	0xba323855	-0.0006798555
63	0x3d4f88c7	0.05066755
64	0xb985deb9	-0.00025533678
65	0xba0b1c2e	-0.00053066283
66	0x3d858ab5	0.06520597
67	0xba4b3fc9	-0.000775334
68	0xb990c546	-0.000276128
69	0x3d4c3531	0.049855415
70	0x3813413c	3.5108285e-05
71	0xb9338229	-0.00017119259
72	0x3d37b599	0.04485092
73	0xba93fccf	-0.0011290553
74	0xba4c1f7b	-0.00077866734
75	0x3d409ca5	0.047024388
76	0xba65866f	-0.0008755689
77	0xba290dc5	-0.000644889
78	0x3d93c5c3	0.072154544
79	0xba7feb78	-0.00097625656
80	0xb9cfa0a8	-0.00039601815
81	0x3d870928	0.06593543
82	0xba5cde59	-0.00084254664
83	0xb9bf1ee0	-0.00036453363
84	0x3cee17bc	0.029064052
85	0x38edbd3b	0.000113362876
86	0xba05fed4	-0.000511152
87	0x3d508272	0.050905652
88	0xbac9e18a	-0.0015402299
89	0xba53e948	-0.0008083773
90	0x3d19f1a4	0.037583962
91	0xba267d47	-0.0006351065
92	0xb92235a0	-0.00015469501
93	0x3d5a14b0	0.053242385
94	0xb99e6d56	-0.0003021757
95	0xb9e220a2	-0.00043130392
96	0x3d548563	0.05188502
97	0xba15aa4c	-0.0005709275
98	0xb9bcf3fc	-0.00036039937
99	0x3d65d362	0.056109793
100	0xba301186	-0.00067164784
101	0xb995e675	-0.00028591198
102	0x3d97493c	0.07387015
103	0xba1a6340	-0.0005889423
104	0xb9c3b8c7	-0.00037330968
105	0x3d68348f	0.05669075
106	0xba477bba	-0.0007609684
107	0xb9dea73b	-0.00042467736
108	0x3d484d97	0.04890212
109	0xba8ec2bd	-0.0010891777
110	0xba028e50	-0.00049803127
111	0x3d824fb3	0.06362858
112	0xbaaea20b	-0.0013323439
113	0xba2dac06	-0.000662506
114	0x3d400439	0.046879027
115	0xba819309	-0.0009885739
116	0xb99990cc	-0.00029290316
117	0x3d4a7d1d	0.049435724
118	0xbadadc75	-0.0016697781
119	0xba01ea32	-0.00049558573
120	0x3ce69cc2	0.02815092
121	0x3929a546	0.00016178665
122	0xb8891a68	-6.5375876e-05
123	0x3d8a6c82	0.067589775
124	0xb9b54bc1	-0.0003457945
125	0xb8c79692	-9.517105e-05
126	0x3d1a9612	0.037740774
127	0xbaa13e3d	-0.0012301874
128	0xb9dea17d	-0.00042463458
129	0x3d07021c	0.032960996
130	0xba930e91	-0.0011219551
131	0xb98dddb2	-0.00027058792
132	0x3cd9f76c	0.026607238
133	0xba38ad41	-0.000704486
134	0xba02c422	-0.00049883325
135	0x3d966e01	0.073452
136	0xba565265	-0.000817573
137	0xb990a6c9	-0.00027590085
138	0x3d4069af	0.046975788
139	0xba897514	-0.0010487163
140	0xb9e62f94	-0.00043904467
141	0x3d483090	0.048874438
142	0xbb07c973	-0.0020719438
143	0xba15dd04	-0.0005716833
144	0x3c8b4d09	0.017004507
145	0xbaa0c210	-0.0012264866
146	0xb9ffb6df	-0.0004877364
147	0x3d5c9d06	0.053860687
148	0xbadce326	-0.0016852363
149	0xba16841e	-0.0005741733
150	0x3d872917	0.06599634
151	0xba8f6829	-0.0010941076
152	0xba0af5a4	-0.00053008855
153	0x3d7d8b3d	0.061900366
154	0xbb0392d9	-0.0020076542
155	0xba5f4355	-0.0008516808
156	0x3d5f09c5	0.054452676
157	0xba850a02	-0.0010150077
158	0xb9bfbff7	-0.00036573384
159	0x3d7e9933	0.06215782
160	0xba92d5fe	-0.0011202691
161	0xb9c0b81a	-0.0003675826
162	0x3d77d3c0	0.060504675
163	0xbb26cc13	-0.0025451228
164	0xba87817c	-0.0010338272
165	0x3d4115ef	0.047140058
166	0xbaa60a64	-0.0012667892
167	0xba1eb686	-0.000605442
168	0x3d63cd24	0.05561556
169	0xba0be1b5	-0.0005336062
170	0xb987e52c	-0.00025919953
171	0x3d88078d	0.06642065
172	0xbaefb432	-0.0018287955
173	0xba63ce7a	-0.000869013
174	0x3d719f4b	0.058989804
175	0xba8a3973	-0.0010545686
176	0xb9bfeb50	-0.0003660568
177	0x3d6f217d	0.058381546
178	0xba992838	-0.001168496
179	0xb9ed2e1b	-0.00045238514
180	0x3d84d2fb	0.06485554
181	0x3a092d5d	0.0005232895
182	0x392f06d9	0.00016691851

left_hand_pose f4 [61, 6]
0	0xbfb17024	-1.3862348
1	0xbe015fbb	-0.12634175
2	0xbd8739a0	-0.06602788
3	0xbfcbef04	-1.5932317
4	0x3f84c39e	1.0372198
5	0x3f6c5f38	0.9233279
6	0xbfe449a2	-1.7834971
7	0xbf47e099	-0.78077084
8	0x3d745445	0.05965068
9	0xbf9e11f1	-1.2349225
10	0x3ed5ab39	0.41732195
11	0x3ee3c6ab	0.4448751
12	0x3f14bad2	0.58097565
13	0xbdfc6f34	-0.12325898
14	0x3f1a0b37	0.6017336
15	0xbe798394	-0.243666
16	0x40191295	2.3917592
17	0xbe9ed5db	-0.31022534
18	0xbfa03e06	-1.2518928
19	0xbed767e5	-0.42071453
20	0x3d93893e	0.07203911
21	0xbfd9b7aa	-1.7009175
22	0x3f90066b	1.1251959
23	0x3f0e3895	0.5555509
24	0xbfb733cc	-1.4312682
25	0xbe95d972	-0.2926746
26	0x3e651939	0.22372903
27	0xbf5d6d4e	-0.8649491
28	0x3f071f02	0.5278169
29	0x3f3cf859	0.7381645
30	0xbd4d9869	-0.050194178
31	0xbf3490f5	-0.70533687
32	0x3f76181a	0.96130526
33	0xbf4b4f3a	-0.79417765
34	0x40021eba	2.0331254
35	0xbf293800	-0.66101074
36	0xc03390a5	-2.8057034
37	0x3e388735	0.18020327
38	0x3e9cefea	0.3065179
39	0xbfeea637	-1.8644475
40	0x3f32cff3	0.69848555
41	0x3f2ac2a2	0.66703236
42	0xc017ecfc	-2.3738394
43	0xbef051f8	-0.46937537
44	0x3c8eaf60	0.01741761
45	0xbfe62422	-1.7979777
46	0x3f263b88	0.6493459
47	0x3f610373	0.8789589
48	0x3db65b4a	0.08904131
49	0xbf1c0902	-0.60951245
50	0x3f565bcf	0.8373384
51	0xbf290957	-0.66029876
52	0x400713ba	2.110579
53	0xbed8142b	-0.42202887
54	0xc003797a	-2.0542893
55	0xbecbd49f	-0.39810655
56	0x3de184cf	0.11011659
57	0xbfaec640	-1.3654251
58	0x3f1f3f5d	0.6220606
59	0x3f651c99	0.8949676
60	0xbffae0fe	-1.9599912
61	0xbc41066d	-0.011781317
62	0xbe05342f	-0.13008188
63	0xbfd09dc2	-1.6298144
64	0x3f47b326	0.78007734
65	0x3f5a0433	0.8516266
66	0xbff78afa	-1.9339287
67	0xbfcd5acb	-1.6043333
68	0xbe9074bf	-0.2821407
69	0xbf740022	-0.953127
70	0x3f494e88	0.78635454
71	0x3edab395	0.42715135
72	0xbfc8d2b7	-1.5689305
73	0xc00ed0f1	-2.2315028
74	0x3ebeb2e9	0.37245873
75	0xbec081d3	-0.37599048
76	0x3d29d3e3	0.041461837
77	0xbf5f3cd0	-0.8720217
78	0xbfbd77fe	-1.4802244
79	0xbeb120a2	-0.3459521
80	0xbe5f0e84	-0.21782881
81	0xbfbfdc0a	-1.4989026
82	0x3f5a3e3a	0.852512
83	0x3f884db9	1.0648719
84	0xbfe17692	-1.761431
85	0xbf10d242	-0.5657083
86	0xbdf88f21	-0.12136675
87	0xbf8938a9	-1.0720416
88	0x3ecad0b4	0.39612353
89	0x3f7938df	0.97352403
90	0xbe464d1c	-0.19365352
91	0x400246e8	2.0355778
92	0x4015e0b7	2.3418405
93	0xbf7a1c5b	-0.97699517
94	0x3f4130cd	0.7546509
95	0x3eae13b5	0.3399941
96	0xbfb6ed2f	-1.4291133
97	0xbf224741	-0.63389975
98	0xbe1180fd	-0.14209361
99	0xbf61bdb8	-0.8818011
100	0x3efbb9a2	0.49165064
101	0x3f7cc68a	0.98740447
102	0xbfbc4de6	-1.4711273
103	0xbe1d16bf	-0.15340708
104	0xbe86b8eb	-0.26312956
105	0xbfc68ec7	-1.5512322
106	0x3f59a9b1	0.85024554
107	0x3f3e80b6	0.7441515
108	0xbfb7d48e	-1.4361742
109	0xbd790d34	-0.060803607
110	0xbe99c0da	-0.30029947
111	0xbfd61edb	-1.6728166
112	0x3f686445	0.90778
113	0x3f43b72c	0.76451373
114	0x3ebee72a	0.3728574
115	0x3f3411af	0.70339483
116	0x3f044201	0.51663214
117	0x3f0944da	0.53620684
118	0x3f27f607	0.6560978
119	0xbd5b77fd	-0.053581227
120	0xbed6612e	-0.41871017
121	0x3e92f6bd	0.2870387
122	0xbe559cb4	-0.20860559
123	0xbfabce6c	-1.342237
124	0x3f453d9f	0.7704715
125	0x3d6f9209	0.05848888
126	0xbee34379	-0.44387415
127	0x3f66c3ba	0.90142405
128	0xbf3e583b	-0.7435338
129	0xbf723f45	-0.9462779
130	0xbd44ab90	-0.048015177
131	0x3e26b1a9	0.1627871
132	0xbf13bce3	-0.57710093
133	0xbe883201	-0.2660065
134	0x3ebc81ab	0.3681768
135	0xbf61ef13	-0.88255423
136	0x3f58ab42	0.8463632
137	0x3ed1f6a8	0.41008496
138	0xbf55c641	-0.83505636
139	0xbf3dfa43	-0.74209994
140	0x3cae6c62	0.021291915
141	0xbf5c67d0	-0.86095905
142	0x3eca3a1d	0.39497462
143	0xbee0ec22	-0.43930155
144	0xbf5ba565	-0.8579925
145	0xbf4cf0e7	-0.8005509
146	0xbdeef2c0	-0.11667395
147	0xbfa0b356	-1.2554729
148	0x3ef9548a	0.4869731
149	0xbede9203	-0.43470773
150	0xbee6f9f9	-0.4511259
151	0xbe877636	-0.26457375
152	0x3c6c8221	0.014435322
153	0xbf15d95d	-0.58534795
154	0x3ef053fc	0.46939075
155	0xbf343136	-0.7038759
156	0xbf9f80b9	-1.2461158
157	0xbf15b997	-0.5848631
158	0xbde19ae3	-0.110158704
159	0xbfbae5aa	-1.4601338
160	0x3f846aaa	1.0345051
161	0x3f4514ed	0.76985055
162	0xbfac9f03	-1.3486027
163	0xbf236dfb	-0.6383969
164	0xbe5f96fe	-0.21834943
165	0xbf96d957	-1.1785077
166	0x3f6b5cf7	0.9193873
167	0x3f21954a	0.6311842
168	0xbf76b5ae	-0.9637097
169	0xbf0687aa	-0.52550757
170	0xbef2e376	-0.47439164
171	0xbff34fcb	-1.9008726
172	0x3f455e09	0.7709661
173	0x3f12d8e9	0.5736223
174	0x3d3f3743	0.04668356
175	0x3ebbac56	0.3665492
176	0xbd0ab1c8	-0.03386095
177	0xbe362074	-0.17785817
178	0x3f363307	0.7117161
179	0xbef50c7a	-0.4786108
180	0xbf9f6308	-1.2452097
181	0xbe8ea3b1	-0.27859262
182	0x3c3a3167	0.0113643175
183	0xbf99d077	-1.2016743
184	0x3f5f7ee4	0.87302995
185	0x3eae009f	0.3398485
186	0xbf27e38f	-0.655816
187	0xbe13e496	-0.14442667
188	0x3ec04983	0.37556085
189	0xbfb33362	-1.4000056
190	0x3fba8cb6	1.4574192
191	0x3e5d8ddf	0.21636151
192	0xbfd18fa5	-1.6371962
193	0xbf0fffe2	-0.5624982
194	0x3da750de	0.08169721
195	0xbfe497ca	-1.7858822
196	0x3f391e3b	0.72311753
197	0x3f2ef504	0.68342614
198	0xbff82bcd	-1.9388367
199	0xbf2a3f38	-0.66502714
200	0x3dd5b428	0.10434753
201	0xbfc8404d	-1.5644623
202	0x3ec2ae54	0.38023627
203	0x3ed70f84	0.42004025
204	0xbf4fed4b	-0.81221455
205	0xbf0f47ce	-0.5596894
206	0xbcf34f26	-0.029700827
207	0xbfe2ab5a	-1.7708542
208	0x3fc16ffd	1.5112301
209	0x3f118816	0.56848276
210	0xbf9f20e6	-1.2431915
211	0x3d8c0ef1	0.06838787
212	0xbf010939	-0.504047
213	0xbfcdd931	-1.6081907
214	0x3f34896b	0.70522183
215	0x3f6ad591	0.91732126
216	0xbfa34952	-1.275675
217	0xbe95ec6a	-0.29281932
218	0x3f32ebb0	0.6989088
219	0xbf14e4f6	-0.58161867
220	0x3f033d2f	0.51265234
221	0x3eb25d50	0.34836817
222	0xbefe4978	-0.49665427
223	0xbe0dad67	-0.13835679
224	0x3f356f1d	0.7087267
225	0xbfbc9db7	-1.4735631
226	0x3fe393f2	1.7779524
227	0x3ed28668	0.4111817
228	0xbfab15d2	-1.3366034
229	0x3e1afb08	0.15134823
230	0xbde10546	-0.10987334
231	0xbfaf598a	-1.36992
232	0x3f3b9d40	0.7328682
233	0x3f71aa4f	0.94400495
234	0xbfa5d8b6	-1.295676
235	0x3e86eaec	0.26351106
236	0xbee755f8	-0.45182776
237	0xbfe455c3	-1.7838672
238	0x3f5dcb72	0.8663856
239	0x3f64d46f	0.8938665
240	0xbeeba302	-0.46022803
241	0xbdbb28d4	-0.09138647
242	0xbf0c4f38	-0.5480838
243	0xbe350e48	-0.17681229
244	0x3df79702	0.12089349
245	0x3f037cd5	0.51362354
246	0xbfb410fc	-1.4067683
247	0xbef0a0d4	-0.46997702
248	0xbc5f82e7	-0.013642049
249	0xbfaebcf5	-1.3651415
250	0x3f7a3304	0.97734094
251	0x3f3c2ff2	0.7351066
252	0xbfb64817	-1.424075
253	0xbe7b57be	-0.2454519
254	0xbdc06455	-0.09394137
255	0xbfc20782	-1.5158541

right_hand_pose f4 [61, 6]
0	0xbfb5dd25	-1.4208113
1	0xbeabacce	-0.33530277
2	0xbdc68772	-0.09693803
3	0xbfd1fc80	-1.6405182
4	0x3f3043fa	0.68853724
5	0x3f882166	1.0635192
6	0xbfda5ee4	-1.7060208
7	0xbf9747ae	-1.181875
8	0xbdc1e591	-0.094676144
9	0xbf7c3b5c	-0.98528075
10	0xbd595d4d	-0.053067494
11	0x3e902492	0.281529
12	0x3ea401ad	0.3203253
13	0xbea0a9df	-0.313796
14	0x3f5b85fa	0.85751307
15	0xbf358e25	-0.7092002
16	0x40097caa	2.148234
17	0xbf0a5a9a	-0.54044497
18	0xbf9e17c5	-1.2351004
19	0xbef4dee3	-0.478263
20	0xbccc2c1e	-0.02492338
21	0xbfb12ac3	-1.3841175
22	0x3f0747eb	0.52844113
23	0x3f2f18c0	0.6839714
24	0xbfb12a95	-1.384112
25	0xbf052a05	-0.5201724
26	0xbcf3fe74	-0.029784419
27	0xbf9a023f	-1.2031935
28	0x3edd4172	0.43213993
29	0x3f4efb37	0.80852073
30	0x3ae58603	0.0017511252
31	0xbf15ee5f	-0.5856685
32	0x3f446880	0.76721954
33	0xbf583d4f	-0.8446855
34	0x3fbecc01	1.4906007
35	0xbe64caf8	-0.22343051
36	0xc01e3021	-2.4716876
37	0xbd9883c3	-0.074470066
38	0x3e513c70	0.20433211
39	0xbfd010a9	-1.6255084
40	0x3f57b513	0.8426067
41	0x3f6346ab	0.88779706
42	0xc01cdbf0	-2.450924
43	0xbe2c070d	-0.16799565
44	0xbe31a443	-0.17347817
45	0xc0007a63	-2.00747
46	0x3f02c3bc	0.51079917
47	0x3f6b783f	0.91980356
48	0x3dd0c602	0.10194017
49	0xbf03831e	-0.51371944
50	0x3f192837	0.5982699
51	0xbf85da12	-1.0457175
52	0x3fde7c00	1.7381592
53	0xbe89f67b	-0.26945862
54	0xc00774a1	-2.1164935
55	0x3ed71184	0.4200555
56	0x3d2abb16	0.041682325
57	0xbfc2ccce	-1.5218751
58	0x3f3b2fbe	0.73119724
59	0x3f91b609	1.1383678
60	0xc00e8b17	-2.2272394
61	0xbd57685a	-0.05258975
62	0x3da3de12	0.08001341
63	0xbfb17f84	-1.386704
64	0x3ef1097b	0.47077546
65	0x3f862112	1.0478842
66	0xbfc38219	-1.5274078
67	0xbfb13074	-1.3842912
68	0xbe93e97f	-0.2888908
69	0xbf364022	-0.7119161
70	0xbec836eb	-0.391044
71	0x3f82bfcf	1.0214785
72	0xbfc8fd41	-1.5702287
73	0xbf6591e4	-0.89675736
74	0x3f26843e	0.65045536
75	0xbf98e7de	-1.194576
76	0x3f8b4b05	1.0882269
77	0x3eed9d7f	0.46409222
78	0xbfd06645	-1.628121
79	0xbf234651	-0.6377917
80	0xbe109ed1	-0.14123084
81	0xbfb96d09	-1.44864
82	0x3f2685c4	0.6504786
83	0x3f8145c4	1.0099416
84	0xbfe8396d	-1.8142525
85	0xbf6fe079	-0.93701893
86	0xbd9e47da	-0.07728548
87	0xbf848e5c	-1.0355945
88	0x3e6b915f	0.23004673
89	0x3f54e30b	0.8315894
90	0xbfc5ea50	-1.5462132
91	0xbf31dbcf	-0.69476026
92	0x3eb2777a	0.34856778
93	0xbf61eb59	-0.8824974
94	0xbe050653	-0.12990694
95	0x3d711ffb	0.05886839
96	0xbe163f4d	-0.14672585
97	0x3d7de5b7	0.06198665
98	0x3e3e1b22	0.18565038
99	0xbfc0ba09	-1.5056773
100	0x3fcbeabb	1.5931009
101	0x3e663dac	0.22484463
102	0xbfb43480	-1.4078522
103	0xbee0b2c6	-0.43886393
104	0xbccc0726	-0.024905752
105	0xbf9c20e1	-1.2197534
106	0x3ee476a1	0.44621757
107	0x3f2fa223	0.68606776
108	0xbfb2846e	-1.3946664
109	0xbe99a27d	-0.3000678
110	0xbe47737c	-0.19477648
111	0xbfd1ed4e	-1.6400545
112	0x3f1d1067	0.61353153
113	0x3f686be1	0.9078961
114	0x3e80bdc4	0.2514478
115	0x3f183a12	0.5946361
116	0x3f2bc910	0.6710367
117	0x3eecd69b	0.4625748
118	0x3ec3779f	0.381772
119	0x3ded0af9	0.115743585
120	0x3e77d7a4	0.24203354
121	0x3f634ea2	0.8879186
122	0x3eac5364	0.33657372
123	0x3e54b8e4	0.20773655
124	0x3cc60b5c	0.024175338
125	0x3edb2100	0.42798615
126	0xbf1c73c9	-0.61114174
127	0xbec72d35	-0.38901678
128	0x3f0d9b89	0.5531545
129	0xbd515c9b	-0.051113706
130	0xbd82b337	-0.06381839
131	0x3e97309d	0.29529276
132	0xbebe03a4	-0.37112153
133	0xbde4713f	-0.111544125
134	0x3ed86b57	0.42269394
135	0xbf8b55ed	-1.0885597
136	0x3f6394f6	0.8889917
137	0x3e838137	0.2568452
138	0xbf59b99a	-0.8504883
139	0xbf52874e	-0.8223771
140	0xbe56cb19	-0.20975913
141	0xbf438eee	-0.7638997
142	0xbd2d7040	-0.042343378
143	0xbd458947	-0.04822662
144	0xbf4f9972	-0.81093514
145	0xbf882784	-1.0637059
146	0xbf0db020	-0.5534687
147	0xbf87bdc2	-1.0604784
148	0x3d0247c0	0.031806707
149	0x3e197ed4	0.14989787
150	0xbf907935	-1.128699
151	0xbf850e30	-1.0394955
152	0xbefb8e19	-0.4913185
153	0xbf531af9	-0.8246303
154	0xbe9fc1a3	-0.3120242
155	0x3f036029	0.51318604
156	0xbfaced92	-1.3510001
157	0xbf3c849b	-0.7363984
158	0x3e877460	0.26455975
159	0xbfb7ee2c	-1.4369559
160	0x3f6d14fb	0.9261014
161	0x3f2c46b1	0.67295367
162	0xbfb8c1ea	-1.4434178
163	0xbf885bf1	-1.0653058
164	0xbe847073	-0.25867042
165	0xbf5f0cf6	-0.8712915
166	0x3ecfe7e2	0.406066
167	0x3f6703da	0.9024025
168	0xbea1843f	-0.31546208
169	0xbf1d14e1	-0.61359984
170	0x3dd5ca23	0.10438945
171	0xbefb1d46	-0.4904577
172	0x3ec00a44	0.37507832
173	0x3ebfea7e	0.3748359
174	0xbfa15e99	-1.2606994
175	0xbfda8d9f	-1.7074469
176	0xbe3fa483	-0.187151
177	0xbf469e64	-0.77585435
178	0xbd2bb98c	-0.041925
179	0x3e554eb5	0.20830806
180	0xbf5da98d	-0.8658684
181	0xbed39d5e	-0.41331
182	0x3eac9865	0.33710018
183	0xbf984f0b	-1.1899122
184	0x3f5d607f	0.86475366
185	0x3e6115d8	0.21980989
186	0xbf905230	-1.1275082
187	0xbf38f81f	-0.722536
188	0xbc75d79d	-0.0150050195
189	0xbfae2278	-1.3604269
190	0x3f781bf3	0.9691765
191	0x3f3049c0	0.68862534
192	0xbfe0ee51	-1.7572728
193	0xbee825e9	-0.45341423
194	0x3ee1ed06	0.44126147
195	0xbfe0d63a	-1.7565377
196	0x3eb6f95c	0.3573712
197	0x3f090a11	0.53530985
198	0xbffde700	-1.9836121
199	0xbf60f229	-0.8786951
200	0x3eeeab14	0.46614897
201	0xbff721f3	-1.9307235
202	0x3ef266fd	0.473442
203	0x3f00b2b6	0.5027269
204	0xbf7f9945	-0.99843246
205	0xbf5719d1	-0.8402377
206	0x3d8b5a42	0.06804325
207	0xbfa77197	-1.308154
208	0x3f81ee3d	1.015083
209	0x3f102593	0.56307334
210	0xbf9f32c8	-1.2437372
211	0xbe2d9437	-0.1695107
212	0x3d66da0e	0.056360297
213	0xbff0895c	-1.8791919
214	0x3f51b472	0.8191596
215	0x3f1f9e10	0.6235056
216	0xc00330a2	-2.0498433
217	0xbf55487b	-0.8331372
218	0x3ead9017	0.33898994
219	0xbfaec3c0	-1.3653488
220	0x3f1a3d68	0.6024995
221	0x3f1c08e6	0.6095108
222	0xbf968aca	-1.1761105
223	0xbf8e5e60	-1.1122551
224	0xbe04ea23	-0.12979941
225	0xbfe0d325	-1.7564436
226	0x3faebd83	1.3651584
227	0x3f19e2ee	0.6011189
228	0xbf92493b	-1.1428598
229	0xbead2f3a	-0.33825094
230	0x3e8cca24	0.2749797
231	0xbfd21503	-1.6412662
232	0x3f4b10c8	0.7932248
233	0x3f0ca124	0.5493338
234	0xbfd0e26a	-1.6319096
235	0xbf18c839	-0.59680516
236	0xbe079614	-0.13240844
237	0xbf9830b7	-1.1889867
238	0x3e7429d3	0.2384408
239	0x3f370046	0.7148479
240	0x3f3a5fa4	0.72802186
241	0xbe041873	-0.12899952
242	0x3f541b46	0.82854116
243	0xbf499b0d	-0.78752214
244	0x40191639	2.3919814
245	0xbf224e64	-0.63400865
246	0xbf74e28d	-0.9565819
247	0xbf0f1461	-0.5589047
248	0x3dbd0adc	0.09230587
249	0xbf9e2084	-1.2353673
250	0x3f85562c	1.0416923
251	0x3f1d73bc	0.6150472
252	0xbf8c8e00	-1.0980835
253	0xbf1907e5	-0.5977767
254	0x3e366bce	0.17814562
255	0xbfac22cf	-1.3448123

expression f4 [61, 10]
0	0xbfc3878f	-1.5275744
1	0xbf2c37b1	-0.6727248
2	0x3ddec64e	0.10877667
3	0xbf3c1ee2	-0.73484623
4	0xbe167f85	-0.14697082
5	0xbe5c9d28	-0.21544325
6	0x3e23dba4	0.16001755
7	0x3e86c75a	0.26323968
8	0x3d93ad37	0.072107725
9	0xbc6113f5	-0.013737668
10	0xbf99a7ef	-1.2004374
11	0xbedb5fbe	-0.42846483
12	0x3e31b276	0.17353234
13	0xbece1f01	-0.4025803
14	0xbdddf571	-0.1083783
15	0x3d367a70	0.04455036
16	0x3d3bfd1b	0.045895677
17	0x3e2e0ab6	0.16996273
18	0x3db3635d	0.087591864
19	0x3d36eac2	0.044657476
20	0xc0103ac0	-2.2535858
21	0xbee7311a	-0.4515465
22	0x3db5b28f	0.08871948
23	0xbebcd257	-0.36879227
24	0x3e30072b	0.17190234
25	0xbf05264c	-0.5201156
26	0x3c7eee0a	0.015559683
27	0x3e07fe11	0.13280512
28	0x3e03412a	0.12817827
29	0xbd3dd132	-0.046342082
30	0xbfadc0cb	-1.3574461
31	0xbf446a3e	-0.7672461
32	0xbc62af3b	-0.0138357235
33	0xbf907cc4	-1.1288075
34	0xbe776675	-0.24160178
35	0xbf097273	-0.5369026
36	0x3e5bcc90	0.21464753
37	0x3eddffff	0.43359372
38	0x3d134d67	0.03596249
39	0xbd58e99e	-0.05295717
40	0xbfe3786c	-1.7771125
41	0xbf2e8059	-0.68164593
42	0x3c6980ad	0.01425187
43	0xbf252a6d	-0.6451786
44	0x3e17f89f	0.14840935
45	0xbf4a6f05	-0.7907565
46	0x3dbe43e5	0.092902936
47	0x3e601ab6	0.2188519
48	0x3d0e38dd	0.034722198
49	0xbdfe5ca1	-0.12420011
50	0xc00494f4	-2.0715914
51	0xbf15511d	-0.58326894
52	0x3e7fd0fc	0.24982065
53	0xbed9e9e8	-0.4256127
54	0x3e36fe4c	0.17870444
55	0xbeda55a4	-0.42643464
56	0x3cbc616d	0.022995675
57	0x3e053ed9	0.13012256
58	0x3e067092	0.1312888
59	0xbdbd4031	-0.09240759
60	0xbf9b219d	-1.2119633
61	0xbf17a14f	-0.5923051
62	0x3b4dd12f	0.00314052
63	0xbf2db22d	-0.6785
64	0x3c760eef	0.015018209
65	0xbed33e13	-0.41258296
66	0x3e4b0253	0.19825105
67	0x3e80055f	0.25004098
68	0x3b8cc795	0.004296253
69	0xbe18ffce	-0.14941332
70	0xbfcd60e9	-1.60452
71	0xbf4c818c	-0.7988517
72	0x3e705ee4	0.23473698
73	0xbf359cd3	-0.7094242
74	0x3d478000	0.048706055
75	0xbed8913e	-0.4229831
76	0x3dc7a6f6	0.09748642
77	0x3e9444bc	0.2895869
78	0x3d1a91ba	0.037736632
79	0xbe1ef7cb	-0.15524213
80	0xbff9a2e0	-1.950283
81	0xbf1a06be	-0.6016654
82	0x3dfde4c2	0.12397148
83	0xbee0eac1	-0.43929103
84	0x3e7b8ad4	0.24564677
85	0xbf22392f	-0.63368505
86	0x3d86799b	0.06566163
87	0x3e26d6e2	0.16292909
88	0x3e01f723	0.12691931
89	0xbe1ae61d	-0.15126844
90	0xbfc30e1f	-1.5238684
91	0xbf4310b0	-0.7619734
92	0x3e837d04	0.25681317
93	0xbf2708e6	-0.6524795
94	0x3c993b5a	0.018705059
95	0xbe71f6a6	-0.23629245
96	0x3e1d07fa	0.15335074
97	0x3e1d7185	0.15375336
98	0x3d844c2f	0.06459843
99	0xbdc2e306	-0.095159575
100	0xbfa94ee2	-1.3227198
101	0xbee96fe6	-0.45593184
102	0xbe1d6381	-0.15369989
103	0xbf5c2a53	-0.8600208
104	0xbedc071a	-0.42974168
105	0xbd8bab17	-0.06819742
106	0x3e46f44c	0.1942913
107	0x3ea71415	0.3263251
108	0x3e12ff31	0.1435516
109	0x3e6399e8	0.2222668
110	0xc000316b	-2.0030162
111	0xbf282054	-0.6567433
112	0x3db91483	0.090371154
113	0xbf215b33	-0.63029784
114	0x3dde669b	0.10859414
115	0xbef3a6b7	-0.4758813
116	0x3db67dee	0.08910738
117	0x3dda054c	0.106455415
118	0x3d27a304	0.04092695
119	0xbb45bcc5	-0.003017233
120	0xbf64fc23	-0.8944723
121	0xbe0b2893	-0.13589697
122	0x3d800c8e	0.062523946
123	0xbd5ab0dc	-0.053391322
124	0xbc30e48d	-0.010796678
125	0x3b95abd5	0.004567603
126	0x3d3c5401	0.04597855
127	0x3ceef688	0.02917029
128	0x3ca992ec	0.02069994
129	0xbd312805	-0.043251056
130	0xbfce8f1a	-1.6137421
131	0xbf15fd8f	-0.58590025
132	0x3d4a9aca	0.049464025
133	0xbf6702c5	-0.902386
134	0xbe16678f	-0.14687942
135	0xbee964fb	-0.45584854
136	0x3e2fd1ab	0.17169826
137	0x3e91dccd	0.2848877
138	0x3c3db704	0.011579279
139	0xbd10e0c5	-0.035370607
140	0xbfccb815	-1.5993677
141	0xbee6a9a6	-0.45051306
142	0xbe14a05d	-0.14514299
143	0xbf6adaab	-0.9173991
144	0xbe85d796	-0.26141042
145	0xbec5d0a0	-0.3863573
146	0x3e28efd7	0.16497742
147	0x3ec23d8b	0.3793758
148	0x3db4cda1	0.08828283
149	0x3db1058a	0.086436346
150	0xbfee34ec	-1.86099
151	0xbf2ea37a	-0.68218195
152	0x3e5097e5	0.20370443
153	0xbf1706a9	-0.5899454
154	0x3e208327	0.1567503
155	0xbf0e7d3e	-0.55659854
156	0x3dda6807	0.10664373
157	0x3e41737a	0.18891707
158	0x3c383439	0.01124292
159	0xbe3ca8fc	-0.18423837
160	0xbfbec602	-1.4904177
161	0xbed2441c	-0.41067588
162	0xbd567b6d	-0.0523638
163	0xbeb63aef	-0.35591838
164	0xbd58cd1d	-0.052929986
165	0xbe20d53f	-0.15706347
166	0x3da6aaa0	0.08138013
167	0x3e0507cd	0.12991257
168	0x3d8736c4	0.066022426
169	0x3d71bfbc	0.059020743
170	0xbfbe9a1c	-1.489078
171	0xbf4fd856	-0.8118948
172	0x3e1dab92	0.1539748
173	0xbf434cb0	-0.7628889
174	0x3e03265c	0.12807602
175	0xbf2c6753	-0.6734516
176	0x3ddde742	0.108351246
177	0x3e7e6631	0.2484367
178	0x3cc91786	0.02454735
179	0xbe1f5d02	-0.15562823
180	0xbf99472b	-1.1974844
181	0xbeedba9e	-0.4643144
182	0xbe995427	-0.29947016
183	0xbf7b1419	-0.9807754
184	0xbf0d815a	-0.552755
185	0xbd172621	-0.036901597
186	0x3e8e7a94	0.27827895
187	0x3eacc102	0.33741003
188	0x3ddda81a	0.108230785
189	0x3e94a621	0.29032996
190	0xbffa19d0	-1.9539127
191	0x3e01f8b6	0.12692532
192	0xbdbd7fa1	-0.09252859
193	0xbefb5ee0	-0.4909582
194	0x3cf8240c	0.030290626
195	0xbf090519	-0.53523403
196	0x3cdb39e1	0.026760997
197	0x3e947be9	0.29000786
198	0xbbc05595	-0.005869577
199	0xbd185536	-0.03719064
200	0xbffcb2ec	-1.9742103
201	0xbdf3bc08	-0.119010985
202	0xbe29283c	-0.16519254
203	0xbf3e5978	-0.7435527
204	0xbd9996c9	-0.07499463
205	0xbf163b62	-0.5868436
206	0x3d9f4800	0.07777405
207	0x3ec1d6c9	0.3785918
208	0x3d505768	0.050864607
209	0xbca672c6	-0.0203184
210	0xbfeb5ee8	-1.8388338
211	0xbe31747f	-0.17329596
212	0xbe6094dc	-0.21931785
213	0xbf532d70	-0.8249121
214	0xbe577af3	-0.21042995
215	0xbf071a48	-0.52774477
216	0x3e071e3a	0.13195124
217	0x3ed75969	0.42060402
218	0x3d19d7fa	0.037559487
219	0x3b2f1bdf	0.0026719493
220	0xbfbfdb48	-1.4988794
221	0xbf1a5b9d	-0.6029604
222	0x3dc9fd4b	0.09862765
223	0xbf0043e2	-0.5010358
224	0xbd55ba75	-0.052179772
225	0xbe2aa9eb	-0.16666381
226	0x3e168ea9	0.14702858
227	0x3da0aa83	0.078450225
228	0xbc720cb3	-0.014773536
229	0xbbfecbe7	-0.007775772
230	0xbff4f43a	-1.9137032
231	0xbdd76dc1	-0.10518981
232	0xbde765bb	-0.112987004
233	0xbf18d6f7	-0.5970301
234	0x3d731c30	0.059353054
235	0xbf238912	-0.6388103
236	0x3d73336f	0.059375223
237	0x3eb96546	0.36210078
238	0xbc4d4734	-0.012529183
239	0xbdf5e7e2	-0.12007119
240	0xbff080bb	-1.8789285
241	0xbdf78cad	-0.12087379
242	0xbd690fef	-0.05689996
243	0xbf3be32c	-0.7339351
244	0xbe3eac87	-0.18620501
245	0xbeaae505	-0.33377853
246	0x3d962973	0.073321246
247	0x3eb82b1d	0.35970393
248	0x3dd7eb8e	0.10542975
249	0x3d702933	0.05863304
250	0xbff88ca3	-1.9417919
251	0xbdf02f6d	-0.11727796
252	0xbea412b9	-0.32045534
253	0xbf5b83fb	-0.8574826
254	0xbe6ed721	-0.23324253
255	0xbf1ae457	-0.6050467
