smplx_visualization/data/100842_smplx_params_all.npz (npz, 25014 bytes, 8 tensors)

global_orient f4 [61, 3]
-1.2432683 1.2890142 -1.2591838 -1.2098258 1.2857289 -1.2979546 -1.2867358 1.3647288
-1.2135808 -1.2829906 1.3276731 -1.2370257 -1.2566588 1.3189466 -1.277313 -1.3008496
1.4043187 -1.2333033 -1.267966 1.2641107 -1.2203383 -1.2552369 1.3527101 -1.2681298
-1.2928271 1.4824591 -1.1787655 -1.2295438 1.2835157 -1.2926614 -1.2529764 1.2911676
-1.2413017 -1.1567885 1.2912909 -1.3706822 -1.2343626 1.3087189 -1.3197874 -1.1594273
1.3432157 -1.3698106 -1.1176887 1.2681844 -1.2755404 -1.1471528 1.3337 -1.300521
-1.2108235 1.3252143 -1.3181844 -1.2146695 1.289436 -1.3009008 -1.2179583 1.3123676
-1.2915547 -1.180635 1.3811071 -1.3412443 -1.2411734 1.3543212 -1.2827239 -0.8871811
1.9358162 -1.5061094 -0.77042305 2.0398355 -1.5526282 -1.2602217 1.2334278 -1.2370877
-1.223637 1.0222437 -1.1822585 -1.2594714 1.2244332 -1.2906227 -1.2488422 1.4859873
-1.2960796 -1.0562878 1.7805723 -1.4862541 -1.2618135 1.2151334 -1.209714 -1.2890615
1.2190388 -1.253443 -1.2047038 1.1501083 -1.3979565 -1.1552052 1.2865914 -1.3540974
-1.20717 1.2755035 -1.2681156 -1.3109145 1.2338339 -1.2718673 -1.3089103 1.1313127
-1.2867608 -1.2920749 1.152749 -1.2833071 -1.3256321 1.0932748 -1.2200469 -1.2942858
1.1887825 -1.1784755 -0.99042654 1.4486802 -1.4795578 -0.97995204 1.3001455 -1.3626364
-0.93711215 1.2790588 -1.5278748 -1.0310689 1.3046824 -1.4608558 -1.198927 1.1782961
-1.3827184 -1.1147866 1.0513917 -1.4673579 -1.0863957 1.1746415 -1.5087664 -1.1871166
1.0904163 -1.328588 -1.2593074 1.3015097 -1.1996967 -0.82396895 0.9316308 -1.7027318
-1.2012875 1.0771805 -1.4797307 -0.9436212 1.1054385 -1.6067735 -1.0506021 1.2716435
-1.4217684 -1.1898913 1.3502755 -1.2780054 -1.2265419 1.0799122 -1.1988991 -1.2946616
1.345888 -1.2737303 -1.250366 1.3658048 -1.3796628 -1.0439147 1.1844965 -1.3536278
-1.2143576 1.194321 -1.2461846 -1.1797283 1.3362446 -1.3340262 -1.4355891 1.2526438
-1.1489521 -1.1837583 1.3852966 -1.3475512 -1.2085308 1.2554603 -1.2658821
00000000: 6a23 9fbf 6bfe a43f ef2c a1bf 92db 9abf
00000010: c492 a43f 6023 a6bf c2b3 a4bf 6faf ae3f
00000020: 9e56 9bbf 0939 a4bf 31f1 a93f dc56 9ebf
00000030: 32da a0bf 3ed3 a83f fe7e a3bf 3d82 a6bf
00000040: b7c0 b33f e2dc 9dbf b64c a2bf 61ce a13f
00000050: 0c34 9cbf 9aab a0bf 9b25 ad3f 1452 a2bf
00000060: 5c7b a5bf 38c1 bd3f cae1 96bf b161 9dbf
00000070: 3e4a a43f ee75 a5bf 8861 a0bf fb44 a53f
00000080: f9e2 9ebf a511 94bf 0549 a53f 8472 afbf
00000090: 98ff 9dbf 1a84 a73f cbee a8bf 1d68 94bf
000000a0: 7eee ab3f f455 afbf 6c10 8fbf de53 a23f
000000b0: e844 a3bf e7d5 92bf aeb6 aa3f 7977 a6bf
000000c0: 44fc 9abf 9fa0 a93f 44ba a8bf 4a7a 9bbf
000000d0: 3d0c a53f eb83 a6bf 0fe6 9bbf a9fb a73f
000000e0: aa51 a5bf 0c1f 97bf 1ec8 b03f e5ad abbf
000000f0: c5de 9ebf 665a ad3f 4c30 a4bf 4d1e 63bf
00000100: d3c8 f73f 31c8 c0bf 723a 45bf aa8c 0240
00000110: 85bc c6bf f24e a1bf f6e0 9d3f e458 9ebf
00000120: 23a0 9cbf e2d8 823f 3f54 97bf 5c36 a1bf
00000130: 3aba 9c3f 2033 a5bf 10da 9fbf d534 be3f
00000140: f0e5 a5bf 7034 87bf cbe9 e33f 933d bebf
00000150: 1b83 a1bf 7e89 9b3f e9d7 9abf f8ff a4bf
00000160: 7709 9c3f d270 a0bf bc33 9abf c036 933f
00000170: 3df0 b2bf c4dd 93bf 07af a43f 1053 adbf
00000180: 8c84 9abf b343 a33f 9d51 a2bf 0ccc a7bf
00000190: 45ee 9d3f 8ccc a2bf 5f8a a7bf dbce 903f
000001a0: 94b4 a4bf b662 a5bf 478d 933f 6843 a4bf
000001b0: 50ae a9bf 6ef0 8b3f 7f2a 9cbf 28ab a5bf
000001c0: 062a 983f 49d8 96bf 988c 7dbf 5a6e b93f
000001d0: 2662 bdbf 23de 7abf 2b6b a63f df6a aebf
000001e0: 95e6 6fbf 33b8 a33f 6791 c3bf 11fa 83bf
000001f0: d5ff a63f 53fd babf 7176 99bf 68d2 963f
00000200: ebfc b0bf 54b1 8ebf 0194 863f 62d2 bbbf
00000210: 040f 8bbf a75a 963f 421f c1bf 70f3 97bf
00000220: c392 8b3f 2c0f aabf fc30 a1bf df97 a63f
00000230: a98f 99bf a1ef 52bf 5b7f 6e3f 1ef3 d9bf
00000240: cac3 99bf 0de1 893f d167 bdbf 2991 71bf
00000250: 027f 8d3f c1aa cdbf 217a 86bf 37c5 a23f
00000260: 82fc b5bf 5c4e 98bf d4d5 ac3f ae95 a3bf
00000270: 53ff 9cbf 903a 8a3f 8775 99bf 79b7 a5bf
00000280: 0f46 ac3f 9809 a3bf fe0b a0bf b1d2 ae3f
00000290: ca98 b0bf ff9e 85bf 959d 973f ad43 adbf
000002a0: 1270 9bbf 83df 983f fa82 9fbf 5601 97bf
000002b0: 100a ab3f 5fc1 aabf 62c1 b7bf a256 a03f
000002c0: dd10 93bf 6485 97bf 6651 b13f 8f7c acbf
000002d0: 23b1 9abf ecb2 a03f 6d08 a2bf

transl f4 [61, 3]
-0.026610922 0.33580494 -0.892365 -0.028520802 0.33456537 -0.8914591 -0.035622578 0.33971187
-0.90344954 -0.037308037 0.333856 -0.89791125 -0.02663275 0.34181362 -0.8957802 -0.03169463
0.3393559 -0.90331304 -0.0204761 0.34351894 -0.8961401 -0.03544808 0.33837447 -0.90015924
-0.028938925 0.33286905 -0.9071432 -0.027298156 0.33624402 -0.8932515 -0.03893761 0.34220955
-0.8967773 -0.025477998 0.32744777 -0.898298 -0.026099445 0.3354315 -0.90056354 -0.025911177
0.3434214 -0.9013515 -0.019840304 0.3446073 -0.89769185 -0.031483945 0.33833694 -0.8969592
-0.022616053 0.34351945 -0.89828116 -0.015968652 0.3278689 -0.89691836 -0.014737631 0.33101246
-0.8968883 -0.017009588 0.33124727 -0.8961491 -0.007038726 0.3365387 -0.8964477 0.013877352
0.32630137 -0.91794235 0.005506488 0.33152953 -0.91446435 -0.009724202 0.35197258 -0.8938947
-0.0041973307 0.34411854 -0.90757895 -0.017473964 0.34101602 -0.9034155 -0.0050761313 0.34744063
-0.91129404 -0.0032695073 0.3329662 -0.92040604 -0.0032119008 0.3403934 -0.89550483 -0.0025010202
0.3254678 -0.9058093 -0.000961917 0.32770604 -0.90766513 -0.011426178 0.3642633 -0.8918637
-0.00081082707 0.36288646 -0.88412464 0.055887297 0.21538283 -0.86408126 0.11793765 0.23208226
-0.82459784 0.111603245 0.2693001 -0.7666277 0.21966907 0.21419719 -0.66759825 -0.08218932
0.34415066 -0.88092786 0.16128281 0.29223347 -0.8545515 0.1751466 0.31387612 -0.7288312
0.16364263 0.31310377 -0.770458 -0.10900329 0.2995152 -0.8803223 0.07125527 0.26115656
-0.8597882 -0.032411627 0.25648108 -0.7351875 -0.049808897 0.2869854 -0.7281127 0.097280495
0.20463508 -0.86248296 0.02238555 0.32456848 -0.8914947 0.1001727 0.14917769 -0.7937
-0.012355361 0.24298507 -0.7394443 0.10334682 0.1633569 -0.8427135 0.053041168 0.28933868
-0.8874415 0.013968601 0.28637058 -0.88351405 0.029683959 0.27695343 -0.78602386 0.054643746
0.30362332 -0.46784356 0.0729803 0.28161597 -0.46501142 0.07447693 0.31210506 -0.8773017
0.045066763 0.2929403 -0.8955663 -0.04005029 0.24389863 -0.8422163 0.083008274 0.25779447
-0.45307374 0.0816888 0.26053113 -0.42930764 -0.041138195 0.27272564 -0.89443755
00000000: 26ff d9bc a0ee ab3e 0872 64bf 75a4 e9bc
00000010: 274c ab3e aa36 64bf fbe8 11bd b7ee ad3e
00000020: 7848 67bf 50d0 18bd 2cef aa3e 83dd 65bf
00000030: ed2c dabc 3202 af3e da51 65bf 3ad2 01bd
00000040: 0ec0 ad3e 863f 67bf 7ebd a7bc b7e1 af3e
00000050: 7069 65bf 0232 11bd 6b3f ad3e d670 66bf
00000060: 5311 edbc d06d aa3e 893a 68bf 62a0 dfbc
00000070: 2d28 ac3e 21ac 64bf 0b7d 1fbd 1736 af3e
00000080: 3293 65bf 3cb7 d0bc 3ca7 a73e dcf6 65bf
00000090: 81ce d5bc adbd ab3e 558b 66bf ad43 d4bc
000000a0: eed4 af3e f9be 66bf 2288 a2bc 5e70 b03e
000000b0: 22cf 65bf 4ff5 00bd 803a ad3e 1e9f 65bf
000000c0: 4d45 b9bc c8e1 af3e c1f5 65bf b1d0 82bc
000000d0: 6fde a73e 719c 65bf 1b76 71bc 777a a93e
000000e0: 799a 65bf b157 8bbc 3e99 a93e 076a 65bf
000000f0: 1da5 e6bb cd4e ac3e 997d 65bf d55d 633c
00000100: f910 a73e 45fe 6abf c56f b43b 3dbe a93e
00000110: 561a 6abf 4252 1fbc c035 b43e 48d6 64bf
00000120: c389 89bb 4e30 b03e 1857 68bf 8f25 8fbc
00000130: a799 ae3e 3d46 67bf ad55 a6bb bde3 b13e
00000140: 914a 69bf 3b45 56bb 8c7a aa3e bb9f 6bbf
00000150: c17e 52bb 0b48 ae3e ce3f 65bf 28e8 23bb
00000160: b7a3 a63e 1ee3 67bf 2829 7cba 16c9 a73e
00000170: be5c 68bf dd34 3bbc b880 ba3e 2e51 64bf
00000180: af8d 54ba 41cc b93e fe55 62bf 14ea 643d
00000190: 518d 5c3e 6e34 5dbf 4b89 f13d f9a6 6d3e
000001a0: d818 53bf 3e90 e43d b4e1 893e b741 44bf
000001b0: eef0 603e 8256 5b3e b8e7 2abf e052 a8bd
000001c0: 8434 b03e 7d84 61bf 5227 253e a09f 953e
000001d0: e3c3 5abf a159 333e 5fb4 a03e ae94 3abf
000001e0: ef91 273e 234f a03e bc3c 45bf 1e3d dfbd
000001f0: 0e5a 993e cd5c 61bf 48ee 913d 50b6 853e
00000200: 141b 5cbf 0ec2 04bd 7d51 833e 3f35 3cbf
00000210: 6a04 4cbd c0ef 923e 9865 3abf ff3a c73d
00000220: dc8b 513e afcb 5cbf e761 b73c d72d a63e
00000230: ff38 64bf 5827 cd3d 09c2 183e ec2f 4bbf
00000240: 246e 4abc 14d1 783e 394c 3dbf 7fa7 d33d
00000250: 0847 273e 12bc 57bf b241 593d 3324 943e
00000260: 5e2f 63bf 8fdc 643c 2a9f 923e fa2d 62bf
00000270: c62b f33c d7cc 8d3e dc38 49bf 1fd2 5f3d
00000280: 8474 9b3e 3189 efbe b276 953d f82f 903e
00000290: fa15 eebe 5c87 983d 3ccc 9f3e d896 60bf
000002a0: ed97 383d 45fc 953e d543 65bf c60b 24bd
000002b0: 90c0 793e 7d9b 57bf 3e00 aa3d a3fd 833e
000002c0: 48f9 e7be 754c a73d 5664 853e 36ce dbbe
000002d0: 8680 28bd b2a2 8b3e dcf9 64bf

body_pose f4 [61, 63]
-0.06755719 -0.052685443 -0.028698288 -0.07097347 -0.006183636 0.15536325 0.10878377 -0.007302448
0.0003994476 0.16620006 -0.039713338 0.06688225 0.16679391 -0.072165094 -0.07669718 -0.2122719
-0.039379895 0.00021322013 -0.0027833455 0.02473638 0.0040440923 0.0023183385 0.0025578702 0.059328604
0.22066556 -0.022444995 0.026515756 0.011317275 0.003589377 -0.005227228 -0.020604214 -0.011590876
-0.01949325 0.00050629757 -0.0143920155 -0.057073746 0.028557949 0.030078368 0.13684964 -0.076117
0.09430177 -0.114365 0.03137128 -0.005442084 0.054920815 0.09184199 -0.38936675 -1.2553186
0.16099593 0.43212417 1.3159571 -0.025159592 -0.22519912 -0.2291658 -0.122726105 0.063498475
0.16954459 0.009955321 0.011329071 -0.077233315 0.018870998 -0.021431189 0.0787824 -0.11454683
-0.06560977 -0.025192376 -0.09197728 -0.016376281 0.15809044 0.110565126 -0.0017023467 -0.0048972256
0.1843314 -0.04457813 0.061911013 0.14116006 -0.094283916 -0.07881608 -0.25471002 -0.044216156
0.0075388975 -0.0036966708 0.023748977 0.0031682157 0.0048906505 -0.002483226 0.060347762 0.1767794
-0.02538177 0.033818174 0.013823467 0.0015890572 -0.003578951 -0.026688948 -0.011057364 -0.022473017
0.0834809 -0.041609515 -0.06791614 0.043834116 0.019455917 0.1560857 -0.06432844 0.08692532
-0.12375713 0.023836846 -0.020773439 0.067874074 0.108253755 -0.37434688 -1.2738845 0.1921788
0.35727033 1.345549 -0.0066387206 -0.2222408 -0.254093 -0.087140314 0.09394815 0.14672314
0.0128509365 0.007325505 -0.07635969 0.023709884 -0.01647535 0.07568198 0.007826237 -0.07717972
-0.03544085 0.00036632497 0.0046400903 0.1335903 0.21341366 0.0008385577 -0.042772084 0.16400881
-0.069943435 0.04785875 0.18692237 -0.05304369 -0.058166843 -0.15201546 -0.08441594 0.010932822
0.006162394 0.10583852 -0.032900274 -0.043280758 -0.04902754 0.13774244 0.07430963 -0.03890514
0.05208069 -0.085991815 0.021750698 0.018305644 -0.03296958 -0.073910296 -0.053444434 0.06728032
0.02922546 -0.08960476 0.034122843 -0.07877403 0.20867412 -0.07337155 0.19026068 -0.20313011
-0.009786327 0.03303795 0.0742813 0.13719922 -0.43516892 -1.1723217 0.28189656 0.5261835
1.2752173 0.013872348 -1.719241 -0.04867586 0.26312464 1.7719505 -0.4592149 -0.70757025
-0.087331995 0.053504694 -0.27708933 0.06122179 -0.16725989 -0.040095095 -0.08140856 -0.00908399
-0.05795756 0.008138688 0.12209749 0.17810045 0.01236924 -0.016936444 0.1934429 -0.081676506
0.0147065325 0.22811721 -0.024305474 -0.022214655 -0.1371859 -0.047092505 0.02297749 -0.0542768
0.1061299 -0.020243824 -0.072140865 -0.07797977 0.21926697 0.15876469 -0.026833085 0.04058822
-0.07071469 0.04452895 0.051420745 -0.020778524 0.034740534 -0.19090089 -0.122792214 0.039481275
-0.075979814 0.04077265 0.019232174 0.16266496 -0.041250266 0.02563496 -0.1224573 0.044649057
-0.021275336 0.04246771 0.09922172 -0.3419698 -1.1618096 0.2674558 0.34937534 1.2126231
-0.041482247 -1.2658489 -0.048217542 0.21640086 1.546591 -0.46176326 -0.6647434 -0.04099825
0.04456611 -0.19771965 0.06464072 -0.16957812 -0.038452413 -0.04226949 -0.0105885165 -0.048238557
00000000: 6d5b 8abd b1cc 57bd ac18 ebbc 8a5a 91bd
00000010: 19a0 cabb 8b17 1f3e 06ca de3d 6049 efbb
00000020: f36c d139 5930 2a3e 74aa 22bd 90f9 883d
00000030: 06cc 2a3e 4bcb 93bd 6913 9dbd ce5d 59be
00000040: d04c 21bd d893 5f39 ca68 36bb f3a3 ca3c
00000050: 4e84 843b 44ef 173b f1a1 273b 8d02 733d
00000060: 27f6 613e 91de b7bc 9237 d93c 186c 393c
00000070: c13b 6b3b 2b49 abbb 2bca a8bc a8e7 3dbc
00000080: 4fb0 9fbc 0eb9 043a 7dcc 6bbc 29c6 69bd
00000090: 5cf2 e93c e966 f63c 5022 0c3e 3be3 9bbd
000000a0: 4921 c13d 3238 eabd 2c7f 003d 8253 b2bb
000000b0: a6f4 603d a717 bc3d 145b c7be 48ae a0bf
000000c0: 1edc 243e 613f dd3e 4871 a83f 7d1b cebc
000000d0: 999a 66be 71aa 6abe d357 fbbd 7d0b 823d
000000e0: 199d 2d3e a51b 233c 919d 393c 802c 9ebd
000000f0: 5a97 9a3c 7690 afbc ab58 a13d 8797 eabd
00000100: 6a5e 86bd 3e60 cebc 965e bcbd 8d27 86bc
00000110: 76e2 213e f86f e23d 4721 dfba e878 a0bb
00000120: 5fc1 3c3e 8f97 36bd 6796 7d3d 438c 103e
00000130: ed17 c1bd 536a a1bd 5a69 82be 001c 35bd
00000140: db08 f73b d843 72bb 378d c23c d7a1 4f3b
00000150: c041 a03b 9ebd 22bb 372f 773d a905 353e
00000160: 6eed cfbc ed84 0a3d d37b 623c e947 d03a
00000170: d58c 6abb c8a2 dabc f229 35bc 5519 b8bc
00000180: 09f8 aa3d bd6e 2abd 9e17 8bbd 678b 333d
00000190: 0462 9f3c eed4 1f3e a1be 83bd e705 b23d
000001a0: 6174 fdbd 7d45 c33c 0f2d aabc 9001 8b3d
000001b0: 25b4 dd3d 65aa bfbe a60e a3bf 85ca 443e
000001c0: 23ec b63e f33a ac3f a089 d9bb 1893 63be
000001d0: 7a18 82be 9f76 b2bd e367 c03d 973e 163e
000001e0: bc8c 523c ca0a f03b 7862 9cbd 3b3b c23c
000001f0: 50f7 86bc 27ff 9a3d 9e39 003c 6710 9ebd
00000200: 6d2a 11bd 4e0f c039 e60b 983b e5cb 083e
00000210: 1c89 5a3e a8d2 5b3a c831 2fbd edf1 273e
00000220: 813e 8fbd 8907 443d 9468 3f3e 5744 59bd
00000230: 5b40 6ebd f1a9 1bbe 44e2 acbd 941f 333c
00000240: e8ed c93b dec1 d83d 70c2 06bd 2a47 31bd
00000250: 1ad1 48bd 5b0c 0d3e a62f 983d ff5a 1fbd
00000260: 9052 553d 7a1c b0bd 852e b23c b8f5 953c
00000270: 1c0b 07bd 485e 97bd 8de8 5abd 44ca 893d
00000280: 3b6a ef3c b382 b7bd 65c4 0b3d 4754 a1bd
00000290: abae 553e d343 96bd b2d3 423e 5701 50be
000002a0: d556 20bc cd52 073d cb20 983d f47d 0c3e
000002b0: 76ce debe a30e 96bf bf54 903e f6b3 063f
000002c0: 523a a33f d848 633c 1710 dcbf 5760 47bd
000002d0: 46b8 863e 46cf e23f 371e ebbe 5323 35bf
000002e0: 1edb b2bd bd27 5b3d a7de 8dbe b3c3 7a3d
000002f0: 2d46 2bbe c13a 24bd 88b9 a6bd 04d5 14bc
00000300: e864 6dbd 2258 053c 400e fa3d f75f 363e
00000310: 5aa8 4a3c 4cbe 8abc e515 463e 0346 a7bd
00000320: abf3 703c 8f97 693e 461c c7bc 82fb b5bc
00000330: 767a 0cbe 12e4 40bd 4a3b bc3c 5a51 5ebd
00000340: a25a d93d 60d6 a5bc 97be 93bd dcb3 9fbd
00000350: 8587 603e 3693 223e 0fd1 dbbc d53f 263d
00000360: ddd2 90bd fd63 363d 8f9e 523d b937 aabc
00000370: 174c 0e3d 867b 43be 7c7a fbbd 1eb7 213d
00000380: 4e9b 9bbd 3901 273d cb8c 9d3c a591 263e
00000390: 0af6 28bd 6800 d23c e5ca fabd eee1 363d
000003a0: 9d49 aebc 9ff2 2d3d c234 cb3d aa16 afbe
000003b0: 2db6 94bf f7ef 883e 53e1 b23e 3c37 9b3f
000003c0: 4ae9 29bd 5607 a2bf c27f 45bd 3098 5d3e
000003d0: b2f6 c53f 3c6c ecbe a02c 2abf c8ed 27bd
000003e0: f48a 363d 0577 4abe 5b62 843d e3a5 2dbe
000003f0: 4780 1dbd c622 2dbd 757b 2dbc cb95 45bd

betas f4 [1, 10]
-1.5248973 -0.2245321 -0.6931081 -1.0850004 1.1686628 -0.25597325 1.0470309 0.46948332
2.220975 -0.84572285
00000000: d62f c3bf beeb 65be 886f 31bf 4be1 8abf
00000010: be96 953f ed0e 83be 1c05 863f 1e60 f03e
00000020: 7424 0e40 4b81 58bf

jaw_pose f4 [61, 3]
0.016360825 -0.00046886434 -0.00038948012 0.00027498713 -0.0002198182 -0.00040501077 0.030859362 -0.0012826266
-0.00073011883 0.031640872 -0.0011523431 -0.00059992063 0.018590828 -0.0009297415 -0.00052188896 0.03131661
-0.0008278925 -0.0006154531 0.015112391 -0.0007175855 -0.0005348194 0.004787606 -0.0011829495 -0.0007341691
0.021760432 -0.0012096374 -0.00065346964 0.03142319 -0.00037342898 -0.00034940898 -0.002545844 -0.0004064354
-0.00040974803 0.019494243 -0.0004457684 -0.0004494454 0.030644014 -0.0015551274 -0.00086553657 0.014698126
-0.00044958503 -0.0003013206 -0.00095581287 -0.0005994976 -0.0004935666 0.040206924 2.6928106e-05 -0.00019587486
0.01743518 2.4977553e-05 -0.0002976974 0.026933676 -0.00014479006 -0.0006883796 0.0012757624 -0.0003187345
-0.00031767366 -0.0055037276 -0.0008073211 -0.0004552959 0.020380817 -0.00018981828 -0.00017918237 0.031523153
0.0001804983 -0.00031936026 0.03546146 0.0010648004 -0.00012915538 0.008118079 -0.00048531877 -0.00063188875
0.03126888 -0.0036361206 -0.0018284845 0.028488433 0.0001533993 -0.00034182885 0.027113408 -0.00039206934
-0.0004614638 0.02701919 -0.00020391506 -0.0004060309 0.02031952 -0.0012576408 -0.00089391967 0.001887333
-0.0017844425 -0.000799913 0.0052252854 -0.0014636923 -0.0006802329 -0.0038473466 -0.00062913034 -0.00021861278
-0.0065013776 -0.001907395 -0.0007260439 0.009165707 -0.00067137927 -0.00047500807 0.00935672 -0.0016779876
-0.0009516774 0.02237815 -0.0016741998 -0.00073898694 0.026339004 0.00020799493 -0.00014642408 0.015634052
-0.00076113804 -0.00077355676 0.013581815 -0.0012884181 -0.000694505 0.04191902 -0.0021130012 -0.0007632625
0.030630942 -0.0021348873 -0.001059928 0.0058869054 -0.0011951171 -0.0007601582 0.06008642 -0.002363234
-0.0009302492 0.0015009142 -0.0011221714 -0.00053275377 0.020675108 -0.002905169 -0.00093931303 0.015192665
-0.0010757606 -0.000630032 0.004265493 -0.00050923275 -0.00031987336 -0.002272952 -0.001797176 -0.0010385974
0.027793508 -0.0027381047 -0.0011429449 -0.007985392 -0.0018088793 -0.00094491156 -0.0042248233 -0.00021151693
-0.00034811214 -0.0030666415 -0.0012573225 -0.0005868359 0.008629358 -5.7260935e-05 1.7584272e-05 0.050114382
0.0022822337 0.001001025 0.03983733 0.0005190429 0.0005496055 0.010605135 0.00032833137 -0.0003772025
0.001887232 -0.00051228784 -0.00049794547 0.0025061667 -0.0007260527 -0.00040588636 0.057951026 0.0013892095
0.0008403264 0.044144113 -0.00038272567 0.00020859732 0.029135933 -0.00013045882 -0.00040468498
00000000: 2307 863c e8d1 f5b9 2333 ccb9 262c 9039
00000010: 007f 66b9 a057 d4b9 c6cc fc3c cf1d a8ba
00000020: 7265 3fba dc99 013d 380a 97ba fe43 1dba
00000030: cb4b 983c e5b9 73ba 60cf 08ba d845 003d
00000040: ed06 59ba 5c56 21ba f699 773c 591c 3cba
00000050: 1f33 0cba 5ae1 9c3b 330d 9bba 4175 40ba
00000060: ef42 b23c b28c 9eba 9b4d 2bba 9ab5 003d
00000070: cac8 c3b9 e130 b7b9 2dd8 26bb d616 d5b9
00000080: 73d3 d6b9 64b2 9f3c 06b6 e9b9 8aa3 ebb9
00000090: 2809 fb3c 6bd5 cbba 2de5 62ba 69d0 703c
000000a0: 48b6 ebb9 91fa 9db9 848f 7aba 9a27 1dba
000000b0: b262 01ba 04b0 243d abe3 e137 c263 4db9
000000c0: 39d4 8e3c e386 d137 4514 9cb9 03a4 dc3c
000000d0: c9d2 17b9 5f74 34ba 7c37 a73a d21b a7b9
000000e0: 708d a6b9 9d58 b4bb 67a2 53ba c8b4 eeb9
000000f0: acf5 a63c f509 47b9 e7e2 3bb9 6c1e 013d
00000100: 2544 3d39 cf6f a7b9 0940 113d c690 8b3a
00000110: e26d 07b9 b101 053c 6272 feb9 56a5 25ba
00000120: cc13 003d fb4b 6ebb c2a9 efba 9360 e93c
00000130: d0d9 2039 7e37 b3b9 f01c de3c a88e cdb9
00000140: 9ff0 f1b9 5957 dd3c 08d2 55b9 8be0 d4b9
00000150: 1f75 a63c 6cd7 a4ba ef55 6aba 6360 f73a
00000160: f4e3 e9ba 41b1 51ba df38 ab3b 5dd9 bfba
00000170: a851 32ba c423 7cbb 39ec 24ba 6c3b 65b9
00000180: 8209 d5bb 8e01 faba fb53 3eba c32b 163c
00000190: 80ff 2fba 810a f9b9 ee4c 193c ecef dbba
000001a0: fd79 79ba 6252 b73c d370 dbba 93b8 41ba
000001b0: e5c4 d73c 3719 5a39 6a89 19b9 fc12 803c
000001c0: 1c87 47ba 84c8 4aba 4386 5e3c 23e0 a8ba
000001d0: 710f 36ba 47b3 2b3d 477a 0abb ae15 48ba
000001e0: beed fa3c 77e9 0bbb 48ed 8aba f1e6 c03b
000001f0: 7aa5 9cba 5a45 47ba 2e1d 763d 7de0 1abb
00000200: f8db 73ba 53ba c43a d315 93ba 80a8 0bba
00000210: d85e a93c a664 3ebb 3b3c 76ba a8ea 783c
00000220: 8900 8dba bb28 25ba 8cc5 8b3b 087e 05ba
00000230: adb4 a7b9 cff5 14bb 388f ebba 8c21 88ba
00000240: 36af e33c c671 33bb dece 95ba 29d5 02bc
00000250: eb17 edba f1b3 77ba 6370 8abb a5ca 5db9
00000260: d282 b6b9 b5f9 48bb becc a4ba e4d5 19ba
00000270: 2762 0d3c 762b 70b8 f081 9337 bd44 4d3d
00000280: 8791 153b d334 833a 782c 233d 6110 083a
00000290: 6713 103a 29c1 2d3c e423 ac39 43c3 c5b9
000002a0: ff5c f73a 0e4b 06ba 8e88 02ba 803e 243b
000002b0: 9254 3eba 25cd d4b9 0e5e 6d3d 2316 b63a
000002c0: 5a49 5c3a 75d0 343d 92a8 c8b9 ebba 5a39
000002d0: 7bae ee3c c6cb 08b9 e62b d4b9

left_hand_pose f4 [61, 6]
-1.1617659 0.018459033 -0.32129925 -1.500237 0.84655005 0.9284436 -1.1232976 0.032206308
-0.24822068 -1.2489825 0.65856165 0.87811893 0.46601787 0.12643671 -1.032144 0.31855163
0.79339963 -0.16232663 -0.8987268 -0.5352192 -0.1167575 -1.0912836 0.70366025 0.20707493
-0.95366085 -0.38514447 -0.24804167 -0.92233944 0.51588804 0.20447733 2.005392 2.183399
0.5847695 1.9252398 1.4109223 -0.6245739 -1.0074767 -0.35398376 0.100796394 -0.80294895
0.6662617 0.5940308 0.93992275 0.5564899 -0.65054405 -0.37769648 2.322042 -0.6544021
0.8723067 0.93025595 -1.005565 -1.0366242 2.7214825 -0.73803824 -1.0122937 0.020744177
-0.17570674 -0.72621095 0.36899897 0.6423757 -1.5828655 -0.5093469 -0.3654391 -1.2786722
0.6012244 1.0846388 -0.5512189 -0.6662065 0.56411034 -0.9373592 0.914824 -0.573421
-0.93021864 -1.0719563 0.43256173 -1.3435396 0.9184415 -0.38498384 -0.94645745 -1.1897078
0.82826376 -1.0468296 0.9456611 -1.011485 0.3145429 0.22162041 1.2035892 -0.8109908
1.9195331 -0.66843665 -1.0272115 -0.9886015 0.19043311 -0.95030487 0.6189158 -0.3508693
-0.80269605 -0.5955357 0.31454948 -0.90094936 0.7098409 0.5382993 -0.04025673 -0.056875877
0.3930876 -0.45623106 0.46143433 0.29765803 0.0013536541 0.1369927 0.9169108 -1.2822851
1.9346179 -0.2399848 -1.1886803 -1.2840782 0.5871962 -1.0539575 0.364378 -0.6095481
-1.1678634 -0.41202804 0.041406803 -1.1281226 0.77053446 0.8227571 -1.622004 -0.41779584
0.7182161 -0.44923437 -1.6836874 0.21261661 -1.6424463 -0.68688285 -0.0007078318 -0.58270735
-1.5034053 0.4877843 -1.0798366 -0.25059146 0.24687009 -0.41854262 0.2931378 0.5670097
-2.292894 -1.3242993 0.4411839 -1.1567442 0.10811622 0.06707454 -1.8796299 -0.2993433
-0.36964908 -1.4361442 0.3907418 0.9522714 -1.1649759 -0.7323874 -0.11263756 -0.88373667
0.61082035 0.85068697 -1.5252143 -0.30503488 0.14191526 -1.0946035 -1.0130876 0.6946524
-0.7705626 0.30997866 0.14392631 0.24882646 -0.3228091 0.063111305 -1.0030469 -0.7727796
0.889141 -1.4039059 1.3489406 0.13362673 -2.401812 -1.179357 0.106677406 -1.4518532
-0.23178527 0.6023991 -1.1474969 0.0296728 -0.114463724 -1.0485755 0.38011497 0.6105901
-0.24964525 1.4226625 1.0777138 0.47904983 -0.072274305 -0.4105361 -2.5523307 -1.7396096
0.21573833 -1.9352845 -0.2223414 0.1588473 -1.6171845 -0.8885991 0.27087164 0.27784383
-0.32822984 -0.029568091 -2.933402 -2.7133694 -0.3586223 -2.6120787 0.9266027 1.0028862
-2.3012514 -0.93631107 1.7345773 -0.30096704 -0.28813812 -0.76478344 1.715341 1.6912658
-0.115296416 2.5861254 0.004487729 -0.0751326 2.3733401 1.4545879 1.0734465 1.0725046
0.23513976 -0.284225 1.5360984 -0.1859744 -0.27912349 0.5473422 0.24613401 0.07193072
-1.7194355 -0.23973604 2.023461 -1.0072757 0.83339465 -0.7089507 -1.2032452 -0.8538641
0.66224116 -0.2653317 0.81172657 -0.026385183 1.9303948 -0.024872418 -0.29646298 0.10159486
00000000: bfb4 94bf 6637 973c 5681 a4be c407 c0bf
00000010: 81b7 583f 7bae 6d3f 37c8 8fbf c3ea 033d
00000020: 902d 7ebe a9de 9fbf 7f97 283f 67cc 603f
00000030: e599 ee3e a078 013e 4b1d 84bf 3319 a33e
00000040: 3d1c 4b3f f438 26be f612 66bf 2004 09bf
00000050: 8e1e efbd 2eaf 8bbf 1423 343f 730b 543e
00000060: 1e23 74bf a831 c5be a3fe 7dbe 701e 6cbf
00000070: 3d11 043f 8162 513e 5858 0040 cfbc 0b40
00000080: 74b3 153f 426e f63f 1a99 b43f 13e4 1fbf
00000090: fff4 80bf 5c3d b5be 576e ce3d 108e 4dbf
000000a0: 2090 2a3f 6712 183f c79e 703f 1f76 0e3f
000000b0: 0e8a 26bf 6f61 c1be 569c 1440 e586 27bf
000000c0: 7e4f 5f3f 4125 6e3f 5bb6 80bf 1ab0 84bf
000000d0: c52c 2e40 13f0 3cbf d792 81bf b1ef a93c
000000e0: 78ec 33be f6e8 39bf 6fed bc3e bc72 243f
000000f0: 569b cabf 8f64 02bf d51a bbbe 88ab a3bf
00000100: d8e9 193f 72d5 8a3f af1c 0dbf 828c 2abf
00000110: 8969 103f c6f6 6fbf e831 6a3f b8cb 12bf
00000120: cf22 6ebf dd35 89bf bb78 dd3e 1bf9 abbf
00000130: fb1e 6b3f 9a1c c5be 094b 72bf 5848 98bf
00000140: 1809 543f 83fe 85bf d916 723f 5778 81bf
00000150: c40b a13e 76f0 623e 360f 9a3f 189d 4fbf
00000160: 43b3 f53f aa1e 2bbf ab7b 83bf fd14 7dbf
00000170: e600 433e 2e47 73bf 4471 1e3f 24a5 b3be
00000180: 7d7d 4dbf 0775 18bf a10c a13e 9ea4 66bf
00000190: 22b8 353f fccd 093f 3ee4 24bd aef6 68bd
000001a0: c742 c93e 1e97 e9be 1f41 ec3e a266 983e
000001b0: 186d b13a d047 0c3e abba 6a3f eb21 a4bf
000001c0: 8fa1 f73f 93be 75be ad26 98bf ad5c a4bf
000001d0: 7d52 163f 14e8 86bf c18f ba3e 580b 1cbf
000001e0: 8c7c 95bf 57f5 d2be 2e9a 293d 5266 90bf
000001f0: bf41 453f 36a0 523f d49d cfbf 56e9 d5be
00000200: 03dd 373f 0c02 e6be 1283 d7bf 2bb8 593e
00000210: ae3b d2bf 8ed7 2fbf ca8d 39ba 4f2c 15bf
00000220: 966f c0bf ddbe f93e 1638 8abf 864d 80be
00000230: 83cb 7c3e 384b d6be 2816 963e 8c27 113f
00000240: c6be 12c0 a482 a9bf dbe2 e13e 3210 94bf
00000250: 096c dd3d 605e 893d b697 f0bf 8643 99be
00000260: a542 bdbe 93d3 b7bf 4f0f c83e 0fc8 733f
00000270: ee1d 95bf be7d 3bbf 85ae e6bd 913c 62bf
00000280: b95e 1c3f 9fc6 593f 393a c3bf 882d 9cbe
00000290: 3c52 113e f81b 8cbf dbac 81bf bdd4 313f
000002a0: 9743 45bf 86b5 9e3e 6b61 133e 5dcc 7e3e
000002b0: 3c47 a5be 8040 813d d763 80bf e2d4 45bf
000002c0: bf9e 633f 30b3 b3bf 16aa ac3f 72d5 083e
000002d0: 4ab7 19c0 2cf5 96bf af79 da3d 53d6 b9bf
000002e0: 1e59 6dbe d436 1a3f 2ee1 92bf 5f14 f33c
000002f0: f56b eabd b937 86bf 6e9e c23e a24f 1c3f
00000300: 01a3 7fbe ce19 b63f 87f2 893f 0546 f53e
00000310: 8d04 94bd ca31 d2be 6359 23c0 87ab debf
00000320: 82ea 5c3e 67b7 f7bf 77ad 63be dea8 223e
00000330: e7ff cebf 3b7b 63bf b0af 8a3e 8c41 8e3e
00000340: be0d a8be c838 f2bc dcbc 3bc0 d8a7 2dc0
00000350: 589d b7be 4c2c 27c0 d635 6d3f 935e 803f
00000360: b447 13c0 15b2 6fbf a106 de3f 5a18 9abe
00000370: d786 93be d9c8 43bf 4b90 db3f 667b d83f
00000380: 8720 ecbd 1483 2540 cd0d 933b 1fdf 99bd
00000390: cee4 1740 f02f ba3f b266 893f d547 893f
000003a0: 7ac8 703e f085 91be df9e c43f 1370 3ebe
000003b0: 46e9 8ebe 9e1e 0c3f 8e0a 7c3e 6a50 933d
000003c0: 7616 dcbf 5d7d 75be 6380 0140 69ee 80bf
000003d0: 5a59 553f cb7d 35bf f003 9abf d696 5abf
000003e0: a388 293f 8ed9 87be 50cd 4f3f bd25 d8bc
000003f0: 2d17 f73f 3ec1 cbbc ffc9 97be f710 d03d

right_hand_pose f4 [61, 6]
-1.1647743 0.118870296 -0.058159273 -1.3684341 0.7241456 0.986369 -1.2502493 0.0055255573
-0.14075151 -1.5517253 0.9022669 0.96848744 0.44001505 0.71929985 0.3351933 -0.533908
1.51358 0.51746917 -0.7913801 0.38506445 0.26965532 -1.3711833 0.9582686 0.025544543
-0.9482052 -0.16771862 -0.12702216 -1.2022934 0.7157217 0.6221956 0.12472412 0.70872515
0.3059873 -0.80457133 0.898002 0.6009484 -1.2530591 -0.3929574 0.20996644 -1.2315254
0.698981 0.87554675 0.9458475 0.6515929 0.12235236 -0.48069346 1.9888186 -0.025046254
-1.5465175 -2.648552 -0.90183705 -0.44917795 -0.89978474 0.37089708 -1.1508186 -0.15250146
0.15347578 -1.1123782 0.5968854 0.9581349 -1.2838628 -0.45096484 -0.19755466 -1.5799525
0.6277654 0.85222477 -0.44936872 -0.08989249 0.25997606 -0.97553015 0.8374954 -0.052883394
-0.71537113 -0.43214795 0.42711985 -0.8964617 0.78879577 -0.3870456 -0.8328494 -0.62458944
0.5163546 -0.96201617 0.895566 -0.42072523 -1.0036358 -0.909895 0.24625444 -1.1342499
0.9261787 -0.08693984 -0.90659916 -0.5603212 0.46349037 -1.2535563 1.0874926 -0.16192904
-0.7224903 -0.30451074 0.35116518 -1.2743715 1.1646668 0.3337892 -0.6450613 -0.4048172
0.24360433 -1.0441731 0.7962867 0.3045981 -0.91076374 -0.35987198 0.3300515 -1.3566228
0.87839067 -0.15941495 -0.84781086 -0.53922355 0.6828113 -1.080149 0.9567233 -0.31258363
-1.2607162 -0.39838928 0.23873182 -1.4398663 0.77830195 0.6248814 -2.0616343 -0.631572
0.32945552 -1.3695885 0.097901255 0.30919176 -2.1980534 -0.9674953 0.2516585 -1.5577044
0.5549852 0.6081892 -1.4440037 -0.22931927 0.00027595466 -1.5111802 0.698902 0.85977376
-1.758916 0.41335514 1.1393117 -2.0028052 -0.18777834 0.93010646 -2.4648495 -1.3610406
0.44136858 -0.53642374 0.4897898 0.6592563 -1.6717718 -0.65857136 0.12860823 -1.54718
0.47545552 0.6101797 -2.3290098 -0.7146771 1.0282739 -1.0313177 -0.61373425 -0.46751097
-1.342298 -0.0165225 -0.123623095 -1.2942234 0.6069263 0.9618558 -1.8310235 0.23606557
1.5100638 -0.886983 -0.541448 0.362812 2.5382848 1.9761972 2.3556778 3.9142246
1.189302 -0.9187743 -1.5191613 -0.3667964 0.34113833 -1.3566172 0.5459778 0.95428586
-1.5635816 -0.23766242 0.35003603 -1.2986658 0.307293 0.8197202 -1.0525846 -0.48894614
0.006140503 -0.6541948 -0.12410107 0.5899755 -0.51060593 -0.2076138 0.079853036 -1.1334617
0.7395628 0.44802672 -0.9858686 -0.59517187 0.97342247 -1.0959303 0.67085636 -0.0889188
-0.76171774 -0.17054966 0.44659925 -1.2810371 0.7038085 0.3140052 -0.6089233 -0.15234491
0.8085932 -1.2307255 0.5460818 0.18158732 -0.6599933 -0.09070484 0.52416104 -1.2140963
0.59710425 0.59878093 0.52706534 -0.32417652 -0.5094338 -0.33553022 0.9645759 0.13708282
0.1784823 0.4033543 0.52865165 -1.2187167 1.1172771 0.29421544 -1.0363303 -0.089942254
0.33106267 -1.3799442 0.8873644 0.74241036 -2.1227615 -0.071773134 0.41105878 -0.45557314
00000000: 5317 95bf 4572 f33d 6b38 6ebd d928 afbf
00000010: 9b61 393f ae82 7c3f 2b08 a0bf bc0f b53b
00000020: 2a21 10be ef9e c6bf f7fa 663f cbee 773f
00000030: a749 e13e 0924 383f 759e ab3e 32ae 08bf
00000040: fdbc c13f dc78 043f e397 4abf 2b27 c53e
00000050: 4310 8a3e ef82 afbf 1751 753f ca42 d13c
00000060: 93bd 72bf 6ebe 2bbe 1912 02be c0e4 99bf
00000070: 8a39 373f 3648 1f3f 5c6f ff3d 036f 353f
00000080: 5eaa 9c3e 63f8 4dbf 76e3 653f c1d7 193f
00000090: 3e64 a0bf b631 c9be 7101 573e a0a2 9dbf
000000a0: 6bf0 323f d523 603f 1023 723f cbce 263f
000000b0: e093 fa3d 741d f6be 9c91 fe3f cd2d cdbc
000000c0: 49f4 c5bf e081 29c0 cbde 66bf a7fa e5be
000000d0: 4b58 66bf 39e6 bd3e 064e 93bf 5829 1cbe
000000e0: c128 1d3e 6962 8ebf 7bcd 183f 5448 753f
000000f0: 9e55 a4bf dde4 e6be c54b 4abe e23b cabf
00000100: 3cb5 203f 672b 5a3f a813 e6be 8e19 b8bd
00000110: 951b 853e 58bc 79bf 1966 563f 429c 58bd
00000120: 9022 37bf 7f42 ddbe 74af da3e 847e 65bf
00000130: 85ee 493f d72a c6be 9e35 55bf 18e5 1fbf
00000140: d12f 043f b146 76bf d043 653f 4c69 d7be
00000150: 2377 80bf e1ee 68bf 202a 7c3e 1a2f 91bf
00000160: 0c1a 6d3f 840d b2bd e216 68bf 3671 0fbf
00000170: 9c4e ed3e 8874 a0bf f532 8b3f bad0 25be
00000180: 20f5 38bf d5e8 9bbe eccb b33e 9b1e a3bf
00000190: cd13 953f 6be6 aa3e bd22 25bf 3344 cfbe
000001a0: 6a73 793e 77a7 85bf 72d9 4b3f 48f4 9b3e
000001b0: d027 69bf 2441 b8be 83fc a83e d1a5 adbf
000001c0: 36de 603f ac3d 23be 220a 59bf 8e0a 0abf
000001d0: b9cc 2e3f 5342 8abf d1eb 743f f60a a0be
000001e0: 265f a1bf aef9 cbbe 1d76 743e 8a4d b8bf
000001f0: cc3e 473f 3af8 1f3f d1f1 03c0 b4ae 21bf
00000200: 65ae a83e ad4e afbf 7480 c83d 624e 9e3e
00000210: e8ac 0cc0 c6ad 77bf 62d9 803e dc62 c7bf
00000220: 8313 0e3f 4ab2 1b3f 1dd5 b8bf acd2 6abe
00000230: 02ae 9039 5a6e c1bf 3eeb 323f 221a 5c3f
00000240: 2924 e1bf 49a3 d33e f7d4 913f f62d 00c0
00000250: f748 40be 751b 6e3f 18c0 1dc0 9436 aebf
00000260: 10fb e13e 1153 09bf bbc5 fa3e 05c5 283f
00000270: 9efc d5bf 2298 28bf e0b1 033e ff09 c6bf
00000280: e86e f33e bd34 1c3f 7f0e 15c0 14f5 36bf
00000290: 7b9e 833f 3802 84bf b01d 1dbf 995d efbe
000002a0: 6cd0 abbf 325a 87bc 1b2e fdbd 1da9 a5bf
000002b0: 865f 1b3f 2f3c 763f fa5e eabf 2cbb 713e
000002c0: c549 c13f 5111 63bf 569c 0abf 7fc2 b93e
000002d0: 4273 2240 08f4 fc3f 6dc3 1640 a882 7a40
000002e0: 0c3b 983f cb34 6bbf e173 c2bf bdcc bbbe
000002f0: afa9 ae3e a2a5 adbf 33c5 0b3f 144c 743f
00000300: 7123 c8bf c75d 73be ec37 b33e ae3a a6bf
00000310: 8255 9d3e 2fd9 513f 18bb 86bf 2657 fabe
00000320: 4636 c93b 4f79 27bf b428 febd a208 173f
00000330: 12b7 02bf b698 54be fd89 a33d 4615 91bf
00000340: fd53 3d3f c263 e53e e261 7cbf 2f5d 18bf
00000350: 3732 793f 7247 8cbf 3ebd 2b3f 0f1b b6bd
00000360: efff 42bf 92a4 2ebe a8a8 e43e 06f9 a3bf
00000370: cb2c 343f 4ac5 a03e 66e2 1bbf 4e00 1cbe
00000380: f7ff 4e3f 6a88 9dbf 04cc 0b3f 07f2 393e
00000390: 52f5 28bf 76c3 b9bd 6b2f 063f 8267 9bbf
000003a0: d3db 183f b549 193f c1ed 063f 77fa a5be
000003b0: 416a 02bf 9eca abbe 72ee 763f 705f 0c3e
000003c0: 10c4 363e 7484 ce3e b755 073f e9fe 9bbf
000003d0: f002 8f3f 68a3 963e 79a6 84bf a533 b8bd
000003e0: 0c81 a93e 03a2 b0bf 502a 633f 9b0e 3e3f
000003f0: 53db 07c0 cbfd 92bd 4c76 d23e e240 e9be

expression f4 [61, 10]
-1.1158088 0.30680478 -0.53081673 -0.3802932 -0.5671615 0.09748483 0.15669186 0.35890794
0.045681436 0.31393668 -0.8701282 0.4245884 -0.8450493 -0.5904976 -0.7117525 0.1973966
0.24612233 0.36872637 0.112587884 0.48328385 -1.6219902 -0.041392982 -0.27224478 -0.365522
-0.17320287 -0.26183417 0.065107115 0.29149458 -0.037245158 0.044622105 -1.6903749 -0.17856109
-0.12283736 -0.34592918 -0.008264318 -0.24947147 0.0753521 0.20005046 -0.0231371 -0.010256839
-1.4113483 0.15802132 -0.38714227 -0.2801222 -0.20208234 -0.27868554 0.11527391 0.29213563
-0.12501076 0.01877732 -1.627527 -0.098662436 -0.24662048 -0.47235906 -0.05655809 -0.3675663
0.058596235 0.31505355 -0.019754536 0.003172904 -1.2385063 0.25612456 -0.37671876 -0.42064753
-0.23351221 -0.22877936 0.09537223 0.39142516 -0.045461144 0.011264098 -1.2008843 0.41271052
-0.54565275 -0.5589913 -0.5440598 0.005191889 0.10942039 0.3777479 0.06712952 0.31448224
-1.3775952 0.07651687 -0.45083752 -0.5056021 -0.22322582 -0.43987924 0.11308643 0.47981688
-0.19024804 -0.08812205 -1.5092574 -0.21230735 -0.05722053 -0.25556314 0.011805443 -0.21250854
0.0394339 0.20997602 -0.03845667 -0.057271402 -1.0541402 0.63322115 -0.94938695 -0.5593925
-0.8531607 0.097687475 0.24855989 0.45793894 0.0018111451 0.44963273 -1.234611 0.26721877
-0.21887359 -0.24280849 -0.14625446 -0.21604232 0.07494975 0.30179185 -0.12709503 -0.065899245
-1.4558693 -0.22082351 0.12905385 -0.25326154 0.08380969 -0.14573345 0.026861655 0.11948599
-0.07421376 -0.110212706 -1.188284 0.2231369 -0.23247442 -0.46106586 -0.26455003 -0.20202571
0.12569122 0.36589894 -0.17280139 -0.056531787 -0.8885386 0.54917717 -0.542825 -0.37893134
-0.4577501 -0.0059662494 0.13692155 0.3134869 -0.025005829 0.21158795 -1.4223037 -0.34695002
0.18825243 -0.24564056 0.1259776 -0.14096941 0.029923134 0.10756924 -0.06673241 -0.13966624
-1.3359038 0.049474623 -0.047420144 -0.36818698 -0.15218182 -0.13880208 0.021953441 0.33010486
-0.06049911 -0.048231788 -0.47500467 -0.034500293 0.07414937 -0.07317548 -0.025849951 0.0109711215
0.019244395 0.040251914 -0.020951277 -0.011853948 -0.8267907 0.3966255 -0.29781985 -0.41040683
-0.43543246 0.09783495 0.1473405 0.23119533 -0.060014904 0.18293256 -0.7460206 0.6109366
-0.60909134 -0.42203447 -0.47743002 0.015300849 0.18781888 0.27605927 -0.04150313 0.23848465
-1.267831 0.22994085 -0.5392181 -0.45918062 -0.37944403 -0.22060174 0.21648607 0.36483818
-0.09218476 0.077797815 -1.5360426 0.15205316 -0.35488194 -0.25089803 -0.1818384 -0.20425828
0.051648352 0.24470127 -0.0031550953 0.08592234 -1.5744307 -0.08865866 -0.00025052225 -0.38580257
-0.117044486 -0.18776312 0.023884615 0.29842734 -0.019923583 -0.038703308 -1.1615332 0.34605435
-0.4608237 -0.39130196 -0.2804713 -0.19852656 0.11892626 0.3525315 -0.029505167 0.08002352
-1.1138088 0.07254529 -0.060825836 -0.17538571 -0.04021678 -0.090352975 0.030556098 0.099967025
0.0022825599 0.0064408095 -1.5876185 0.21534242 -0.5046142 -0.38112637 -0.25651246 -0.3166203
00000000: d3d2 8ebf 8415 9d3e 9be3 07bf cab5 c2be
00000010: 7f31 11bf 20a6 c73d d573 203e c8c2 b73e
00000020: 751c 3b3d 4fbc a03e b9c0 5ebf a763 d93e
00000030: 2755 58bf da2a 17bf 6935 36bf 5622 4a3e
00000040: 7e07 7c3e b4c9 bc3e 7a94 e63d fb70 f73e
00000050: 609d cfbf b08b 29bd ab63 8bbe b325 bbbe
00000060: 185c 31be 210f 86be e156 853d c73e 953e
00000070: 618e 18bd abc5 363d 345e d8bf b8d8 36be
00000080: 2792 fbbd a11d b1be 1067 07bc 7375 7fbe
00000090: 3452 9a3d 07da 4c3e 048a bdbc 4d0c 28bc
000000a0: 10a7 b4bf 57d0 213e 8337 c6be 2d6c 8fbe
000000b0: acee 4ebe dfaf 8ebe ba14 ec3d cd92 953e
000000c0: d202 00be e5d2 993c ce52 d0bf 880f cabd
000000d0: 148a 7cbe 0cd9 f1be 75a9 67bd a631 bcbe
000000e0: 9b02 703d b34e a13e 44d4 a1bc 7ff0 4f3b
000000f0: 6087 9ebf c222 833e 48e1 c0be 1d5f d7be
00000100: d31d 6fbe 2345 6abe 8452 c33d e168 c83e
00000110: 7735 3abd 0d8d 383c 94b6 99bf cb4e d33e
00000120: e6af 0bbf 0e1a 0fbf 8147 0bbf b920 aa3b
00000130: cc17 e03d 2c68 c13e 347b 893d d103 a13e
00000140: 0a55 b0bf e0b4 9c3d 2dd4 e6be 246f 01bf
00000150: 4f95 64be da37 e1be dc99 e73d 8faa f53e
00000160: 62d0 42be 5579 b4bd 592f c1bf 1967 59be
00000170: 1360 6abd 2cd9 82be 9e6b 413c d79b 59be
00000180: 7185 213d f403 573e be84 1dbd 6b95 6abd
00000190: 11ee 86bf c81a 223f 060b 73bf 5934 0fbf
000001a0: bd68 5abf 5f10 c83d 7c86 7e3e f976 ea3e
000001b0: f263 ed3a 4336 e63e bc07 9ebf e6d0 883e
000001c0: 6620 60be caa2 78be bbc3 15be 333a 5dbe
000001d0: 417f 993d 7684 9a3e 3325 02be 2ff6 86bd
000001e0: ed59 babf 8f1f 62be b126 043e 7fab 81be
000001f0: 6aa4 ab3d 263b 15be f90c dc3c 12b5 f43d
00000200: 62fd 97bd 33b7 e1bd b119 98bf 007e 643e
00000210: c60d 6ebe d310 ecbe 1a73 87be d4df 4ebe
00000220: 33b5 003e 1b57 bb3e d9f2 30be e08d 67bd
00000230: 4477 63bf e096 0c3f 94f6 0abf 4a03 c2be
00000240: 395e eabe 8780 c3bb 2a35 0c3e 5b81 a03e
00000250: 06d9 ccbc 83aa 583e 0c0e b6bf 6fa3 b1be
00000260: 3fc5 403e 3389 7bbe 4600 013e 495a 10be
00000270: 5c21 f53c 434d dc3d 00ab 88bd ab04 0fbe
00000280: e5fe aabf e7a5 4a3d a03b 42bd 0183 bcbe
00000290: 8dd5 1bbe 2222 0ebe b4d7 b33c 8103 a93e
000002a0: eacd 77bd b28e 45bd d033 f3be 2e50 0dbd
000002b0: a0db 973d 07dd 95bd 47c3 d3bc 38c0 333c
000002c0: 6ca6 9d3c 31df 243d 03a2 abbc 1037 42bc
000002d0: 8ea8 53bf 7f12 cb3e d87b 98be d820 d2be
000002e0: 01f1 debe b15d c83d 6ee0 163e 78be 6c3e
000002f0: 30d2 75bd ac52 3b3e 35fb 3ebf 5766 1c3f
00000300: 69ed 1bbf e714 d8be b571 f4be 6ab0 7a3c
00000310: 9853 403e a457 8d3e 30ff 29bd 5235 743e
00000320: 4948 a2bf 9d75 6b3e 330a 0abf b919 ebbe
00000330: 7d46 c2be 6ce5 61be 86ae 5d3e 12cc ba3e
00000340: 5dcb bcbd 7654 9f3d 0b9d c4bf d3b3 1b3e
00000350: 16b3 b5be b575 80be d833 3abe 1529 51be
00000360: 398d 533d f892 7a3e b7c5 4ebb 0df8 af3d
00000370: f286 c9bf ac92 b5bd 8758 83b9 ea87 c5be
00000380: 05b5 efbd fa44 40be aba9 c33c 78cb 983e
00000390: c836 a3bc 5c87 1ebd 1fad 94bf 092e b13e
000003a0: 16f1 ebbe bb58 c8be ef99 8fbe 8c4a 4bbe
000003b0: 9c8f f33d 027f b43e d2b4 f1bc 5fe3 a33d
000003c0: 4991 8ebf a092 943d 8324 79bd 5098 33be
000003d0: 5aba 24bd fb0a b9bd c850 fa3c 83bb cc3d
000003e0: 0097 153b 6d0d d33b 1537 cbbf b982 5c3e
000003f0: 652e 01bf ff22 c3be 9a55 83be 0e1c a2be
